MyNetworkDay1/src/models/model.pth (torch, 974911 bytes, 8 tensors)

weight f4 [256, 784]
0	0xbc837dc0	-0.016051173
1	0x3ca529cc	0.020161532
2	0x396c9b00	0.00022564456
3	0x3c8bb422	0.017053667
4	0xbd06463b	-0.03278182
5	0x3bbe6858	0.0058107786
6	0xbcd1e59c	-0.025622182
7	0x3c59c2fc	0.013291117
8	0x3a7e4880	0.00097001344
9	0x3c1243e0	0.0089273155
10	0xb969ff00	-0.00022315606
11	0x3c372170	0.011177406
12	0x3c74a5dc	0.014932122
13	0x3c824e02	0.015906338
14	0xbcd9a2a5	-0.026566813
15	0xbce19f9e	-0.027541932
16	0xbcf0ee8c	-0.029410623
17	0x3cb6d0ee	0.022316422
18	0xba142380	-0.0005651042
19	0xbb8190c0	-0.003954023
20	0xbcd6af3c	-0.026206605
21	0x3c1ae73c	0.009454545
22	0xbc40a0a0	-0.011757046
23	0x3d082051	0.033233944
24	0x3d07fec3	0.033201944
25	0x3d0741b3	0.03302164
26	0xbc8797bc	-0.016551845
27	0x3cab1bf8	0.02088736
28	0xbcf49201	-0.029854776
29	0x3cc5195a	0.02405994
30	0x3bc33728	0.005957503
31	0xbcd6873c	-0.026187532
32	0xbc872b25	-0.016500065
33	0x3cd2f12e	0.025749769
34	0xbcca617a	-0.024704684
35	0xbccbcaf5	-0.02487705
36	0xbc73d834	-0.01488309
37	0xbcf1e8a5	-0.029529879
38	0xbce7b881	-0.02828622
39	0x3bbd5568	0.0057780035
40	0xbc2d74fc	-0.010586973
41	0xbc83a273	-0.016068673
42	0x3bc19608	0.0059077777
43	0xbc8fd950	-0.017559677
44	0x3c5659c4	0.013082925
45	0x39af5080	0.00033438578
46	0xbc8a1da7	-0.016859842
47	0x3aa47820	0.0012548007
48	0x3c4457a4	0.011983786
49	0x3cfbecce	0.030752566
50	0x3cd94976	0.026524287
51	0x3cc0f32e	0.023553457
52	0x3c1f65a0	0.009728819
53	0xbca244e5	-0.019808242
54	0x3d0b6fdf	0.034042235
55	0x3b9d0758	0.004792135
56	0xbd0d55da	-0.034505703
57	0x3beff1f8	0.007322546
58	0xbc0eccbc	-0.008715805
59	0xbd02cca3	-0.031933438
60	0xbb923018	-0.0044612996
61	0xbb40bde0	-0.002941005
62	0xbd02c01c	-0.03192149
63	0xbc8e5543	-0.01737464
64	0xbc225118	-0.00990703
65	0xbb609510	-0.0034268536
66	0x3d018437	0.03162023
67	0x3ce500a2	0.027954403
68	0x3cceb2fe	0.025231835
69	0xbc529c52	-0.0128546525
70	0x3d0e52c4	0.0347469
71	0x3d4419ff	0.047876354
72	0x3ce6abfa	0.028158177
73	0x3c3ed13c	0.011646565
74	0xbb27a170	-0.0025578402
75	0xbc67e566	-0.014153814
76	0x3d0b2da9	0.03397909
77	0xbbcd2288	-0.00626022
78	0x3ce65ce6	0.02812047
79	0x39dc8d80	0.00042067096
80	0x3bede090	0.007259436
81	0xbc14477c	-0.009050246
82	0x3d07906d	0.03309672
83	0x3bf12b80	0.007359922
84	0xbca8f0ae	-0.020622578
85	0x3cd1c318	0.025605723
86	0xbce411ce	-0.027840521
87	0xbd3ef16a	-0.04661695
88	0x3d027793	0.031852316
89	0x3c75e034	0.0150070675
90	0x3c871b92	0.016492639
91	0xbc47ff2e	-0.012206836
92	0x3d02753d	0.03185009
93	0x3c0a03c0	0.008423746
94	0xbd5bf16a	-0.053697027
95	0x3c40795f	0.011747687
96	0x3c525f9d	0.012840179
97	0xbd32d8a2	-0.04366363
98	0xba248287	-0.00062755536
99	0x39400953	0.0001831402
100	0x3b8b53a0	0.0042519122
101	0xbcf7864a	-0.030215401
102	0xbd323c55	-0.04351457
103	0xbd4a8861	-0.049446467
104	0xbc8b51e4	-0.017006822
105	0xbd1901bd	-0.037355173
106	0xbd48c581	-0.04901648
107	0xba965bc0	-0.0011471435
108	0x3c5cf4b4	0.013486076
109	0x3ac9e5e0	0.0015403591
110	0xbbb3ca80	-0.0054867864
111	0x3c97399c	0.018460087
112	0x3c59645c	0.013268556
113	0xbc74068e	-0.014894141
114	0xbcfed345	-0.0311066
115	0x3c8bccf3	0.0170655
116	0xbcbdc96a	-0.02316733
117	0xbaed5e00	-0.0018109679
118	0x3d00e6fd	0.031470288
119	0xbc14fe32	-0.009093808
120	0xbce81967	-0.028332425
121	0xbd0c2071	-0.034210626
122	0xbd0db352	-0.03459484
123	0xbc291296	-0.010319373
124	0xbd21fc81	-0.039547447
125	0x3b370802	0.0027928357
126	0x3ab74816	0.0013983275
127	0x3c52f40c	0.012875568
128	0xbbc4c794	-0.006005237
129	0xbbb25c1e	-0.00544311
130	0xbc4bd18d	-0.0124400975
131	0xbc52ad31	-0.012858675
132	0xbc0d8851	-0.008638457
133	0xbc87c999	-0.016575621
134	0xbc969c0e	-0.01838496
135	0x3cc92bc2	0.024556998
136	0xbc5fe4d8	-0.0136654
137	0xbcd57ae0	-0.026059568
138	0x3cf0000e	0.029296901
139	0x3cce64c2	0.02519453
140	0x3c267784	0.010160331
141	0x3c549eb0	0.012977287
142	0x3c629558	0.013829552
143	0x3ce01c56	0.027357262
144	0x3cb4bccc	0.022062682
145	0x3d09e84f	0.033668812
146	0xbc3fa5ce	-0.011697246
147	0x3bfd672e	0.0077332472
148	0xbd45cd2e	-0.048291378
149	0x3c8875f7	0.016657813
150	0xbca99da3	-0.02070505
151	0xbc22968c	-0.0099235885
152	0xbc9a9d4d	-0.018873835
153	0x3a3b1036	0.00071358995
154	0xbcb78112	-0.022400413
155	0xbd202a7b	-0.039103013
156	0xbc0e9ba1	-0.008704097
157	0xbcb9e6c1	-0.02269304
158	0xbba42993	-0.005009839
159	0xbbc83832	-0.0061102146
160	0x3c74d87e	0.014944194
161	0xbd22940d	-0.039691973
162	0xbcc0f62c	-0.023554884
163	0x3c9a646a	0.01884671
164	0x3b1f0ff0	0.0024270974
165	0x398a0a80	0.00026329234
166	0x3981af00	0.00024735183
167	0x3bf6f040	0.0075359643
168	0x39f36900	0.00046426803
169	0xbd0a0bad	-0.03370254
170	0x3c8f70fc	0.01750993
171	0x3bbc0c40	0.005738765
172	0xbc7f67fc	-0.015588757
173	0xbb9afd81	-0.004729927
174	0xbc6a40f2	-0.014297711
175	0xbc51ac45	-0.01279742
176	0xbc9e573f	-0.019328712
177	0x3c3d0cc5	0.011538689
178	0xbd468de5	-0.048475165
179	0x3c0e8d5c	0.008700695
180	0xbcda1a7c	-0.026623957
181	0xbcb2909e	-0.021797474
182	0x3c7bc30d	0.015366328
183	0xbc5de330	-0.013542935
184	0xba7b01a6	-0.0009575136
185	0xbc29f98a	-0.010374436
186	0x3c8b1147	0.016976012
187	0x3c6032fb	0.01368403
188	0xbd247e2d	-0.040159393
189	0xbbdb7bfd	-0.00669813
190	0xbcb168d7	-0.021656437
191	0xbd306998	-0.043069452
192	0xbc115564	-0.008870456
193	0xbbaf3494	-0.005346844
194	0xbcfaec98	-0.030630395
195	0xbccc9d8c	-0.024977468
196	0xbcddb043	-0.027061587
197	0xbd0d854f	-0.03455096
198	0x3bee4660	0.007271573
199	0x3b0ce680	0.0021499693
200	0x3c9611d6	0.018319052
201	0xbd40aa91	-0.047037665
202	0xbd4fe48c	-0.05075507
203	0x3c08cb2b	0.00834922
204	0x3c83d027	0.016090466
205	0xbcdea56d	-0.02717849
206	0x3c046a3e	0.008081971
207	0x3bc811b8	0.006105628
208	0xbc8e417f	-0.017365215
209	0x3b77025d	0.0037690618
210	0xbb929b71	-0.0044740965
211	0xbcdfa5ed	-0.0273008
212	0xbd029743	-0.031882536
213	0xbd4290df	-0.04750144
214	0x3b554fb5	0.003254873
215	0xbc3eedc3	-0.0116533665
216	0xbd50b109	-0.050950084
217	0xbce40f33	-0.027839279
218	0xbd5a8cf8	-0.053357095
219	0xbd4d15b6	-0.050069533
220	0x3c3f3203	0.011669639
221	0xbb9f4e54	-0.0048616324
222	0x3c570f88	0.0131262615
223	0x3cda0062	0.02661151
224	0xbb848f28	-0.004045386
225	0xbc911c53	-0.017713701
226	0x3cbeecd0	0.02330628
227	0xbb6a8a80	-0.003578812
228	0xbc95857c	-0.018252127
229	0xbd534d16	-0.051587187
230	0xbcba77ec	-0.022762261
231	0xbd557cf0	-0.052121103
232	0x3bf805a1	0.0075690304
233	0x3bd454ff	0.006479859
234	0xbc95b919	-0.018276738
235	0xbc7519dd	-0.01495978
236	0xbca80a7a	-0.020512808
237	0xbc35a322	-0.011086257
238	0xbbd7b90f	-0.00658334
239	0xbd2bd390	-0.04194981
240	0x3bea8b56	0.0071577234
241	0x3bfed527	0.0077768746
242	0x3c90285a	0.017597366
243	0xbd2fc517	-0.04291257
244	0x3b9ec1d3	0.004844883
245	0x3c8b35c2	0.016993407
246	0xbd32e6f6	-0.043677293
247	0xbce9496e	-0.028477397
248	0xbd0b05db	-0.03394113
249	0x3d57ed5e	0.052716605
250	0x3bee68c8	0.0072756745
251	0x3c50d448	0.012745924
252	0x3c2743c0	0.010209024
253	0x3c14b468	0.009076215
254	0xbb88fa00	-0.004180193
255	0x3c2df9e8	0.010618664

bias f4 [256]
0	0xbc9128b1	-0.017719598
1	0x3ca575c7	0.020197762
2	0x3bb06e4b	0.0053842417
3	0xbda5eef7	-0.081022196
4	0x3c2ea0db	0.010658468
5	0xbd8c37b5	-0.06846563
6	0xbd5303e4	-0.051517382
7	0xbd533c50	-0.05157119
8	0xbd5c0982	-0.053720005
9	0x3d72fe36	0.059324466
10	0x3e4ddef0	0.20104575
11	0xbdcf5607	-0.1012383
12	0xbdbd8760	-0.09254336
13	0xbded44a8	-0.11585361
14	0x3c416129	0.01180295
15	0xbc73cfd3	-0.014881092
16	0xbd44e473	-0.04806943
17	0xbd3c385e	-0.045952193
18	0xbc5adace	-0.013357831
19	0x3c2c7d71	0.010527954
20	0xbe3bd6a4	-0.18343598
21	0x3d39c8e3	0.045357596
22	0xbd4f67bd	-0.050636042
23	0xbd5ea0ac	-0.054352447
24	0xbd3675e0	-0.044546008
25	0xbd5920d4	-0.053009823
26	0xbe2b0a8e	-0.16703245
27	0xbdf9ca9a	-0.12196846
28	0xbd8ea1aa	-0.06964429
29	0xbd5321be	-0.05154585
30	0xbd0426d9	-0.03226361
31	0xbe1960dc	-0.14978355
32	0x3c0edccf	0.008719637
33	0xbe96dfd2	-0.29467636
34	0x3c360b46	0.011111086
35	0xbd98d95b	-0.07463332
36	0xbdc10426	-0.094246194
37	0x3c27c486	0.010239726
38	0x3c947afd	0.018125052
39	0xbe8d2d82	-0.27573782
40	0x3d1fc0e0	0.0390023
41	0xbdf56dd0	-0.11983836
42	0x3b4af0cb	0.0030966278
43	0xbd1152ee	-0.03547948
44	0xbd703255	-0.05864175
45	0xbe546075	-0.2073992
46	0xbd0a5e1b	-0.033781152
47	0xbd0cbf3c	-0.034362063
48	0xbb5fcbde	-0.0034148614
49	0x3c383608	0.011243351
50	0xbd0d690d	-0.034524012
51	0xbd3cca71	-0.0460915
52	0xbc124854	-0.008928377
53	0xbd3e3100	-0.04643345
54	0xbd42f499	-0.047596548
55	0xbd12829f	-0.0357691
56	0xbc843d7c	-0.0161426
57	0xbd919b5c	-0.071097106
58	0xbc98084a	-0.01855864
59	0xbd3b76b1	-0.04576749
60	0xbda72282	-0.08160879
61	0xbc05ed1b	-0.008174206
62	0xbd74019a	-0.05957184
63	0x3c1ac5bc	0.009446558
64	0x3beaa752	0.0071610594
65	0xbe3c917e	-0.18414876
66	0xbd269d64	-0.040677443
67	0xbbfe0e1a	-0.007753146
68	0xbcef60e8	-0.029221013
69	0x3c18db2c	0.009329598
70	0xbd2a635d	-0.041598666
71	0x3af2fe24	0.0018538875
72	0xbd20e37d	-0.03927945
73	0xbd1eb1b6	-0.038743697
74	0x3c0492d9	0.008091652
75	0xbd5484ea	-0.05188457
76	0xbd255d57	-0.04037222
77	0xbc387dfe	-0.011260508
78	0xbda27497	-0.07932394
79	0x3bf8488e	0.0075770086
80	0xbc8e3ede	-0.017363962
81	0x3c25f61e	0.01012948
82	0xbc6f1be5	-0.014594053
83	0xbd487bbf	-0.04894614
84	0x3c94e47b	0.018175354
85	0xbd0b8055	-0.034057934
86	0xbd376cc5	-0.044781465
87	0xbcb98b76	-0.022649508
88	0x3dc74ba1	0.09731222
89	0xbd51471a	-0.0510932
90	0xbd50a2ad	-0.05093639
91	0xbc15ee01	-0.009150983
92	0xbd0ba4c8	-0.034092695
93	0xbcf2ebe2	-0.029653493
94	0xbc06c337	-0.008225254
95	0xbe28dbf6	-0.16490158
96	0xbcb00e11	-0.021491082
97	0xbd442f52	-0.04789669
98	0xbd4be7c9	-0.049781594
99	0xbcdf969d	-0.027293498
100	0xbd96be79	-0.073605485
101	0x3a70e617	0.00091895595
102	0x3ac35d0d	0.0014905051
103	0xbc80a71f	-0.01570469
104	0xbd01da34	-0.031702235
105	0xbcb155fd	-0.021647448
106	0xbc948da5	-0.018133948
107	0xbc3743ce	-0.0111855995
108	0x3e0d2275	0.13782676
109	0xbd051f5f	-0.03250062
110	0xbe1ad0a0	-0.15118647
111	0xbe4304d4	-0.1904481
112	0xbce51ec2	-0.027968768
113	0xbcd21d47	-0.025648726
114	0x3e694069	0.22778477
115	0x3c71296d	0.014719349
116	0xbe0395f8	-0.12850177
117	0xbd0230d9	-0.031784866
118	0xbb02cf43	-0.0019959963
119	0xbc6441c8	-0.013931699
120	0xbe0009af	-0.12503694
121	0x3c419fb3	0.01181786
122	0xbd00edd3	-0.031476807
123	0xbcc972fd	-0.024590963
124	0xbd065316	-0.03279408
125	0x3dad219d	0.08453677
126	0xbc7b1453	-0.01532467
127	0xbc47f947	-0.012205428
128	0xbd6ab6c8	-0.05730322
129	0xbdb3d78d	-0.087813474
130	0x3c6ee111	0.014580027
131	0x3d678f08	0.05653289
132	0xbc84556b	-0.016154012
133	0xbd2650ef	-0.040604528
134	0x3d179d1c	0.037015066
135	0xbd50fce1	-0.051022414
136	0xbd062945	-0.0327542
137	0xbb010781	-0.001968831
138	0xbd2b2f0f	-0.041792925
139	0xbbc0c991	-0.0058834036
140	0x3c801a13	0.015637433
141	0xbe9bef6b	-0.304561
142	0xbc27e7d0	-0.0102481395
143	0xbd063baa	-0.032771744
144	0xbc26496b	-0.01014934
145	0xbb0c7dea	-0.0021437355
146	0xbb96cca0	-0.00460203
147	0xbe703033	-0.23455887
148	0xbaf2d48d	-0.001852648
149	0xbb332585	-0.0027335596
150	0x3c1a3423	0.009411844
151	0xbd3398e3	-0.043846976
152	0xbd2c9eb5	-0.042143542
153	0x3c82e8e2	0.015980188
154	0xbbb7d21f	-0.005609765
155	0xbc067631	-0.00820689
156	0xbd0664e3	-0.032811057
157	0xbcf502b1	-0.02990851
158	0xbe061c51	-0.1309674
159	0xbdfc9994	-0.1233398
160	0xbe2aa4d9	-0.16664447
161	0xbc94bbd4	-0.01815597
162	0xbd49b54f	-0.049245175
163	0xbcacb972	-0.021084521
164	0xbd6c4da0	-0.057691216
165	0xbd39e5ef	-0.045385297
166	0xbe7edb85	-0.24888428
167	0xbd43fe17	-0.04784974
168	0xbc17a342	-0.009255232
169	0xbca7b9fe	-0.02047443
170	0xbe30fbac	-0.17283505
171	0xbe816776	-0.25274247
172	0xbdc2a6f6	-0.095045015
173	0xbce5a92c	-0.028034769
174	0xbad6466a	-0.0016347889
175	0xbdd51cf3	-0.10405912
176	0xbd48e0f2	-0.04904265
177	0xbd9a79f0	-0.07542789
178	0xbc2a6cc7	-0.010401911
179	0xbe50b5db	-0.20381872
180	0xbd66b6b4	-0.056326583
181	0xbe1d7320	-0.15375948
182	0xbd703530	-0.058644474
183	0x3c8d7825	0.017269203
184	0xbd5c90e1	-0.053849105
185	0xbd58446b	-0.052799623
186	0x3dc2b100	0.09506416
187	0x3d40eabb	0.047098856
188	0x3cecd4ee	0.028910127
189	0xbd759f19	-0.05996618
190	0x3c8eadbc	0.017416827
191	0xbe224378	-0.1584605
192	0xbcf9e273	-0.030503487
193	0xbc48d299	-0.012257242
194	0xbe2048de	-0.15652797
195	0xbd42db23	-0.047572266
196	0xbd9ac9aa	-0.075579956
197	0xbd2d7cc1	-0.042355303
198	0x3dcd2ab7	0.10017913
199	0x3b87f25e	0.0041487655
200	0xbe489a24	-0.1959005
201	0xbc6a4de1	-0.014300794
202	0xbd24f427	-0.040271904
203	0xbcf277b4	-0.029598095
204	0xbc8d9ee9	-0.017287688
205	0x3d9373c0	0.07199812
206	0xbd18bff5	-0.03729244
207	0xbcc22aee	-0.023702111
208	0x3c164a65	0.0091730105
209	0xbcd4a96c	-0.025959693
210	0xbcfd4858	-0.030918285
211	0xbdb099bc	-0.086230725
212	0xbd3897fc	-0.04506682
213	0xbb7ffc15	-0.0039060165
214	0xbc662c12	-0.014048593
215	0xbe4dbef5	-0.20092376
216	0xbc2b4c8b	-0.010455261
217	0xbd49f8f9	-0.049309704
218	0xbe21c423	-0.15797476
219	0xbe36c618	-0.17849004
220	0xbd67fe8b	-0.056639235
221	0xbc65a89b	-0.014017249
222	0xbd49407a	-0.049133755
223	0xbbeafb59	-0.0071710763
224	0xbd99af29	-0.07504112
225	0xbae8656c	-0.0017730421
226	0x3b9af3d3	0.004728773
227	0xbd586f7e	-0.052840702
228	0x3e360e42	0.17778876
229	0xbd0515db	-0.032491546
230	0x3c8370ea	0.016045053
231	0xbd34477f	-0.044013496
232	0xbc67870b	-0.014131318
233	0x3bbe2303	0.0058025136
234	0xbdd646a6	-0.10462694
235	0xbd278af9	-0.04090402
236	0xbd2259ae	-0.039636306
237	0xbe0d6446	-0.13807783
238	0x3c686671	0.01418458
239	0xbe37d466	-0.17952117
240	0xbcaf0a71	-0.021367284
241	0xbe271f6e	-0.16320583
242	0xbcb0249a	-0.021501828
243	0x3d923289	0.07138545
244	0xbd28b56a	-0.041188635
245	0x3b472bcc	0.0030391095
246	0xbd20f811	-0.039299075
247	0xbcbf0d7a	-0.023321856
248	0xbd3e9045	-0.046524305
249	0xbd46f194	-0.04857023
250	0xb995ae30	-0.00028549274
251	0xbb931d19	-0.0044895527
252	0xbd52449d	-0.051334966
253	0xbd67fcf0	-0.056637704
254	0xbcbbd95f	-0.022930799
255	0xbcd528ba	-0.026020397

weight f4 [128, 256]
0	0xbbd78280	-0.006576836
1	0x3d404868	0.046944052
2	0xbd492916	-0.04911145
3	0xbceedf13	-0.029159104
4	0xbbe83e6b	-0.007087519
5	0xbe1588f2	-0.14603022
6	0xbb8b7033	-0.0042553185
7	0x3c2833de	0.010266272
8	0x3c04216a	0.008064607
9	0xbde2773b	-0.11057898
10	0xbe1499bf	-0.14511774
11	0xbdd1efbe	-0.10250805
12	0x3c1fc92c	0.009752553
13	0xbc6c88ee	-0.014436943
14	0xbd624596	-0.055242144
15	0xbd93baf8	-0.07213396
16	0xbd68592b	-0.056725662
17	0x3d310278	0.043215245
18	0xbcab4b4c	-0.020909928
19	0xbc40ec07	-0.011775023
20	0x3d951c00	0.07280731
21	0x3d01af8b	0.03166155
22	0x3cd8c944	0.026463158
23	0x3d871a87	0.065968566
24	0xbda083ce	-0.0783764
25	0xbd5d1b7f	-0.0539813
26	0xbdc8edce	-0.09810983
27	0xbd79c3cd	-0.060977746
28	0x3df55d8c	0.11980733
29	0x3d2321ac	0.039827034
30	0xbd0f7fcd	-0.03503399
31	0x3df9518b	0.12173756
32	0xbd63bef7	-0.05560204
33	0xbbd8fc37	-0.006621863
34	0xbc79ac34	-0.01523881
35	0xbe83d900	-0.25751495
36	0x3d69a796	0.057044588
37	0xbb6be62e	-0.0035995352
38	0xbd87980f	-0.066208
39	0x3d99937c	0.074988335
40	0xbe5af671	-0.21383072
41	0xbe075123	-0.13214545
42	0xbd2bc107	-0.041932132
43	0xbcfc2940	-0.030781388
44	0xbda3757c	-0.07981393
45	0xbe303d1f	-0.17210816
46	0x3d87a15c	0.06622574
47	0x3c88fa74	0.016720988
48	0xbdaef72d	-0.08543239
49	0x3cf90b58	0.030400917
50	0x3ca669ce	0.020314123
51	0xbe7cfb18	-0.2470516
52	0x3ce20b55	0.027593294
53	0xbd5eb51f	-0.05437195
54	0x3cdafc64	0.026731677
55	0x3ad6b17a	0.0016379796
56	0xbe35b83b	-0.1774606
57	0xbda9ae33	-0.08285179
58	0xb91d0508	-0.00014974561
59	0xbd229d42	-0.039700754
60	0xbe339aeb	-0.17539565
61	0xb9fbbbe9	-0.00048014455
62	0x3a8cd721	0.0010745266
63	0x3d4d7d1f	0.050168153
64	0xbc19a354	-0.009377319
65	0x3da2d819	0.079513736
66	0xbd384676	-0.04498907
67	0x3d8938dd	0.06700299
68	0x3d1ae982	0.037820347
69	0x3d096765	0.03354587
70	0x3cddd85a	0.027080704
71	0xbc9bde4b	-0.019026896
72	0x39cfc673	0.00039629973
73	0xbd671dc5	-0.056424875
74	0xbe1ff57a	-0.15620986
75	0x3c99de44	0.018782742
76	0x3d9b2db2	0.07577075
77	0x3d34dd2c	0.04415624
78	0x3cc44c48	0.023962155
79	0x3b005879	0.0019583984
80	0xbc6ee18f	-0.014580145
81	0xbe3d6426	-0.18495235
82	0xbc9690f6	-0.01837967
83	0xbe906ca2	-0.2820788
84	0xbd5ea107	-0.054352786
85	0xbc3d2046	-0.011543339
86	0x3bf19f7b	0.007373748
87	0x3c50feb9	0.012756043
88	0xbe7c9782	-0.2466717
89	0x3cc32eb0	0.023825973
90	0xbd84e415	-0.06488816
91	0xbd8768f9	-0.06611819
92	0xbcff29b0	-0.031147808
93	0xbba7f39a	-0.005125475
94	0xbd8419f8	-0.06450266
95	0x3d0b3d52	0.033994026
96	0x3cda76c3	0.026667958
97	0xbcf25331	-0.029580684
98	0x3c88a262	0.016678993
99	0xbd482e29	-0.048872147
100	0x3cdfdd90	0.027327329
101	0xbd068b6f	-0.032847818
102	0xbd4fd44a	-0.050739564
103	0x3d33cdb2	0.04389734
104	0xbd40db84	-0.047084346
105	0x3e2f245f	0.17103718
106	0x3d944ac2	0.072408214
107	0x3dce15cd	0.10062752
108	0xbe124305	-0.14283378
109	0x3ccb5659	0.024821447
110	0xbe33c7fd	-0.17556758
111	0xbc5e2043	-0.0135574965
112	0x3d117024	0.035507336
113	0xbe8f340e	-0.27969402
114	0xbe15ae63	-0.14617305
115	0xbe4960a5	-0.19665773
116	0xbe063396	-0.13105616
117	0xbd1fc404	-0.039005294
118	0x3cda2a57	0.026631517
119	0xbccab38a	-0.024743814
120	0x3e13b2a9	0.14423622
121	0xbe9cf3e2	-0.30654818
122	0x3d34451a	0.044011213
123	0xbd9965b8	-0.074901044
124	0x3d989639	0.07450528
125	0xbdf3c0ad	-0.11901984
126	0xbd6e34e6	-0.058155917
127	0xbe49b518	-0.19697988
128	0x3d98c03a	0.07458539
129	0xbd3c44e5	-0.04596414
130	0x3cdb4603	0.026766783
131	0xbd856d26	-0.06514959
132	0xbceccea0	-0.02890712
133	0x3dd9c0ab	0.106324516
134	0xbe03d5f4	-0.12874585
135	0x3c859745	0.016307482
136	0x3d2d715c	0.042344436
137	0x3cd4c1ba	0.025971282
138	0x3e047818	0.12936437
139	0x3cb809f3	0.022465682
140	0xbba80e55	-0.0051286616
141	0xbe0df577	-0.13863169
142	0xbd0ab2f9	-0.033862088
143	0xbd9b97d9	-0.07597322
144	0xbea6e9f8	-0.3260038
145	0x3ce6afe7	0.028160049
146	0x3d0aa54d	0.03384905
147	0x3bfab74c	0.007651245
148	0x3c1d0d36	0.009585669
149	0xbd551e00	-0.052030563
150	0xbd26f3e0	-0.04075992
151	0x3d18bd77	0.037290063
152	0xbd7481fb	-0.05969427
153	0xbd0e405c	-0.034729347
154	0x3d5a6a3e	0.053323977
155	0xbce86e50	-0.028372914
156	0xbca761dd	-0.020432407
157	0x3ddd6492	0.10810198
158	0x3dfc6294	0.1232349
159	0xbe0fbfb3	-0.14037971
160	0xbd9447cb	-0.07240256
161	0xbc648f0e	-0.0139501225
162	0xbcababea	-0.020955998
163	0x3d0a7340	0.033801317
164	0xbd919fe3	-0.07110574
165	0xbe15f979	-0.14645948
166	0xbe104a96	-0.14090952
167	0x3cc9cc5d	0.02463358
168	0xbe78e511	-0.24306132
169	0x3b8d0aff	0.0043042894
170	0xbecb041f	-0.39651582
171	0xbe69a6ac	-0.22817487
172	0xbd4e8a84	-0.050425068
173	0xbd9b251d	-0.07575438
174	0xbc3f8b92	-0.011690991
175	0x3e2316a9	0.15926613
176	0xbd2a2f88	-0.041549236
177	0xbd11c126	-0.03558459
178	0xbd2ef6a8	-0.0427157
179	0x3d1b7adf	0.037958976
180	0x3dcc111b	0.099642
181	0xbe004ebe	-0.12530038
182	0x3c63ed24	0.013911519
183	0xbc5eccab	-0.013598601
184	0xbe4179ba	-0.18894091
185	0xbd82b6af	-0.063825004
186	0xbda521b3	-0.08063068
187	0xbd892c8f	-0.06697952
188	0x3db13e33	0.08654442
189	0xbdd92f79	-0.10604758
190	0xbd5b85b3	-0.053594302
191	0xbe846808	-0.2586062
192	0x3b8adbff	0.0042376514
193	0xbd055c37	-0.032558646
194	0xbe710d7e	-0.23540303
195	0x3d202f2c	0.039107487
196	0xbdfd8279	-0.12378401
197	0xbd34ab2d	-0.04410856
198	0xbefa9ddc	-0.48948562
199	0x3cc35a35	0.023846725
200	0x3cd76e59	0.026297735
201	0xbd4651b8	-0.048417777
202	0xbd45d86d	-0.048302103
203	0x3d62e747	0.055396345
204	0x3caf8ec9	0.02143039
205	0xbdfab629	-0.122417755
206	0x3cbb1857	0.022838755
207	0x3d1c6575	0.038182694
208	0xbcc12f9e	-0.023582276
209	0x3d7655da	0.06014047
210	0x3cf4e958	0.029896423
211	0xbc57a630	-0.013162181
212	0xbcf081fe	-0.02935886
213	0xbcfb3327	-0.03066404
214	0x3d04c943	0.0324185
215	0xbdde0469	-0.10840685
216	0xbda37587	-0.07981401
217	0x3d9aef1f	0.0756514
218	0x3e6d6626	0.23183498
219	0xbd620a22	-0.055185445
220	0x3ce16a6d	0.027516568
221	0x3befd3a4	0.0073189307
222	0x3d0ee688	0.03488782
223	0x3cd3dd70	0.025862426
224	0xbd522570	-0.051305234
225	0xbd1f8d19	-0.03895292
226	0x3c7a9d34	0.015296269
227	0xbd305863	-0.043053042
228	0xbe23a4ac	-0.15980786
229	0x3ca1360c	0.019679092
230	0xbd314458	-0.04327807
231	0x3cf8a262	0.030350868
232	0xbce21414	-0.027597465
233	0xbbbd4979	-0.005776581
234	0xbd208b86	-0.03919556
235	0xbd8d2992	-0.068926945
236	0x3bbfa0e8	0.005848039
237	0x3ddb3cb9	0.10704941
238	0xbe33bea2	-0.1755319
239	0xbd342142	-0.04397703
240	0x3e53479d	0.20632787
241	0xbe0cae90	-0.13738465
242	0xbd5a4bd4	-0.05329497
243	0xbe4a026f	-0.19727491
244	0x3cdfd3a7	0.027322603
245	0x3df8b757	0.12144344
246	0x3ca52158	0.020157501
247	0xbe1b09e6	-0.15140495
248	0xbcd270ce	-0.025688555
249	0x3c4a026d	0.01232968
250	0x3be8b3fb	0.0071015335
251	0xbd846de7	-0.06466275
252	0xbd267ede	-0.040648334
253	0xbd363360	-0.04448259
254	0x3d1cbe83	0.038267624
255	0x3d94b3b1	0.07260836

bias f4 [128]
0	0xbe2f41d1	-0.1711495
1	0xbe01893e	-0.1265001
2	0xbeceb973	-0.40375862
3	0xbe71c8fa	-0.23611823
4	0x3ec2d6e2	0.38054568
5	0xbecf67db	-0.40508923
6	0x3e35c196	0.17749628
7	0xbe2da2cc	-0.16956633
8	0xbeefd314	-0.46840727
9	0xbdf984e4	-0.1218355
10	0x3ef13cd9	0.47116736
11	0xbe7c56fe	-0.2464256
12	0xbe524868	-0.20535433
13	0x3ba86875	0.0051394054
14	0xbec1543d	-0.3775958
15	0xbeeaa807	-0.4583132
16	0x3f4532b2	0.7703048
17	0xbe3d13aa	-0.18464532
18	0xbec0b626	-0.37638968
19	0xbdc4b311	-0.09604467
20	0x3e657dc7	0.22411261
21	0xbdf07fc2	-0.11743118
22	0xbe1ae37d	-0.15125842
23	0xbea28198	-0.31739497
24	0xbe94dafa	-0.29073316
25	0xbce74b83	-0.028234249
26	0xbe6a19b4	-0.22861367
27	0xbeaa594b	-0.3327125
28	0x3e04c62a	0.12966219
29	0xbc2348aa	-0.009966055
30	0xbd4cb1eb	-0.049974363
31	0x3e38f62d	0.18062659
32	0xbe0372ab	-0.12836711
33	0x3d66267b	0.05618904
34	0xbe8a7e9e	-0.27049726
35	0xbe7936cc	-0.2433731
36	0xbea7a2a7	-0.3274128
37	0xbee07408	-0.43838525
38	0xbe4d3539	-0.20039834
39	0xbde4d24e	-0.11172925
40	0xbe5cc901	-0.21561052
41	0xbe7fd69d	-0.24984212
42	0xbeb00bd9	-0.3438404
43	0xbea0e08b	-0.31421313
44	0xbe8a40b0	-0.27002478
45	0xbebf02be	-0.3730678
46	0x3e4bd04a	0.19903675
47	0xbf0a61d5	-0.5405553
48	0xbed44888	-0.41461587
49	0xbe8c048e	-0.27347225
50	0xbec9d6b2	-0.39421612
51	0xbedec722	-0.435113
52	0x3e641fc2	0.2227774
53	0xbeb5ce86	-0.35509127
54	0xbef9ac43	-0.48764238
55	0xbe262199	-0.16223754
56	0xbe0f8829	-0.14016785
57	0xbe002f01	-0.1251793
58	0xbe524e62	-0.20537713
59	0xbe4c7452	-0.19966248
60	0xbe9b7a1b	-0.30366597
61	0xbe4122f0	-0.18860984
62	0xbea37184	-0.31922543
63	0x3f6ffe1a	0.93747103
64	0xbe24c0d7	-0.16089188
65	0xbd20f1bc	-0.039293036
66	0xbec21b66	-0.37911528
67	0x3e86e3c3	0.26345643
68	0xbe9acb38	-0.3023317
69	0xbf2b2100	-0.6684723
70	0x3f1e85d2	0.61922944
71	0xbe8012b3	-0.25014266
72	0xbe8ea77e	-0.2786216
73	0xbe6f1769	-0.23348774
74	0xbe8096ce	-0.25115055
75	0xbe67bb0d	-0.22629948
76	0xbecc74b0	-0.39932775
77	0xbe0383c9	-0.12843241
78	0xbe84b1f2	-0.25917011
79	0xbec7f24a	-0.3905204
80	0xbd247de6	-0.04015913
81	0xbe783236	-0.24237904
82	0xbe82b09c	-0.25525367
83	0xbe9e97aa	-0.30975085
84	0xbe8c3a71	-0.27388337
85	0xbe65a2d8	-0.22425401
86	0xbe8dae8a	-0.27672225
87	0xbe46e934	-0.19424897
88	0xbe6435a2	-0.22286084
89	0x3e97ef63	0.29674825
90	0xbecd9b08	-0.40157342
91	0xbe6d7063	-0.23187403
92	0xbee24775	-0.44195142
93	0xbeaef92e	-0.34174484
94	0xbe6e2070	-0.23254561
95	0xbdca2903	-0.098711036
96	0x3b99d04f	0.004694022
97	0xbe8b892d	-0.27253094
98	0xbeab4089	-0.33447674
99	0xbe9eda81	-0.3102608
100	0xbe535a44	-0.20639902
101	0xbe260af5	-0.16215117
102	0x3ef45121	0.47718146
103	0xbeb73d27	-0.35788843
104	0xbeac81c2	-0.33692747
105	0xbedb8846	-0.42877406
106	0xbef3d4f0	-0.47623396
107	0xbea08865	-0.3135406
108	0xbe6900f3	-0.22754268
109	0x3cd59bf8	0.026075348
110	0xbdf05588	-0.11735064
111	0xbe277cb4	-0.16356164
112	0xbe8c2621	-0.2737284
113	0xbcfa32a2	-0.030541722
114	0xbe864ab6	-0.26228875
115	0xbe67bd5e	-0.22630832
116	0xbe8719d7	-0.26386902
117	0xbe1aea1b	-0.15128367
118	0x3edbae59	0.42906454
119	0x3b2fed1c	0.002684421
120	0xbe1cb776	-0.1530436
121	0xbe6c5ab0	-0.2308147
122	0xbe3b29f9	-0.1827773
123	0x3b69d670	0.0035680793
124	0xbebf15d3	-0.37321338
125	0xbe6b8d57	-0.23003136
126	0xbe93eef4	-0.28893244
127	0xbe8e119a	-0.27747804

weight f4 [64, 128]
0	0xbd036e7b	-0.032087784
1	0x3d3b94e5	0.045796294
2	0xbd9e4a31	-0.07728995
3	0xbd833d42	-0.064081684
4	0xbd9b00a8	-0.075684845
5	0xbda559b2	-0.08073749
6	0xbd8bb457	-0.068215065
7	0xbdb19edc	-0.08672878
8	0xbdd31c16	-0.10308091
9	0xbd82e3ad	-0.06391082
10	0xbc167e68	-0.009185411
11	0xbbabc40b	-0.005241876
12	0xbdf8243e	-0.12116288
13	0xbdb30f26	-0.08743124
14	0x3c0c5ed9	0.008567535
15	0xbe10e1c3	-0.14148621
16	0xbda3c5ac	-0.07996687
17	0x3c92fb44	0.017942078
18	0xbcea65a6	-0.028612923
19	0xbdeb66a7	-0.11494189
20	0x3d304f30	0.04304427
21	0x3e1a4fe7	0.15069543
22	0x3d264009	0.040588412
23	0x3cc53900	0.024075031
24	0xbcaf6b8f	-0.021413593
25	0xbe911897	-0.28339073
26	0xbde6724f	-0.112522714
27	0xbd73fcb2	-0.05956716
28	0xbd9d1833	-0.07670631
29	0xbdcd052f	-0.10010754
30	0x3d46e25d	0.04855572
31	0x3c42c177	0.011886946
32	0x3d6154ab	0.055012386
33	0xbe18d8a3	-0.1492639
34	0x3e1fb8b1	0.15597798
35	0x3db85407	0.09000402
36	0xbc7d4d9c	-0.015460398
37	0x3d883943	0.06651547
38	0xbe5a3a04	-0.21311194
39	0xbe19d45f	-0.1502242
40	0x39795136	0.00023776744
41	0xbcd7b5cc	-0.026331805
42	0xbd20db8c	-0.039271876
43	0xbc191704	-0.009343866
44	0xbc933d0b	-0.017973443
45	0x3ca7771f	0.020442544
46	0xbdb6fa33	-0.089344405
47	0xbd7bcdd6	-0.061475597
48	0xbaf84510	-0.0018941481
49	0x3d357e15	0.044309694
50	0xbd1f43e3	-0.0388831
51	0x3d2a41e1	0.041566733
52	0x3c3ed8e4	0.01164839
53	0xbe2660b0	-0.16247821
54	0xbe2b6f48	-0.16741669
55	0xbc76fa0b	-0.015074263
56	0xbbccb1f4	-0.0062467996
57	0xbdc5ac8c	-0.09652051
58	0xbdab10f2	-0.083528414
59	0x3d6328f3	0.055458974
60	0xbdbfdeb4	-0.09368649
61	0xbe6e0248	-0.23243058
62	0xbe3378ec	-0.17526597
63	0xbd7e7c0d	-0.062130023
64	0x3da26579	0.079295106
65	0x3cadc016	0.021209758
66	0xbdc6e381	-0.09711362
67	0x3d785d66	0.060635947
68	0x3c80bb04	0.015714176
69	0xbe007c72	-0.12547472
70	0xbdfa7328	-0.122289956
71	0x3d445217	0.04792985
72	0xbdbfcff6	-0.09365837
73	0xbc538e4c	-0.012912344
74	0xbc8c88c5	-0.01715506
75	0x3d9b3006	0.07577519
76	0x3dc1cbeb	0.094627224
77	0xbd083115	-0.033249933
78	0xbd61a110	-0.05508524
79	0xbe58eee6	-0.21184883
80	0xba23b578	-0.00062449975
81	0xbdbc1241	-0.09183169
82	0x3d213c0a	0.0393639
83	0x3bd2d967	0.006434608
84	0x3dced432	0.10099067
85	0xbe12f2c4	-0.1435042
86	0x3d0e04b0	0.03467244
87	0xbd2a62b7	-0.041598048
88	0xbbba8a96	-0.0056927903
89	0xbd590f41	-0.052993063
90	0x3ceb8a23	0.028752392
91	0xbd20abd3	-0.039226364
92	0xbe09b26b	-0.13446967
93	0x3d1fdbf0	0.039028108
94	0xbdb572b1	-0.08859766
95	0x3db2be86	0.08727746
96	0x3c8f1e7d	0.017470593
97	0xbe0a60ff	-0.13513564
98	0xbc65f9b7	-0.014036587
99	0x3dc550b5	0.09634534
100	0x3d1ab6f3	0.03777213
101	0xbcf1c049	-0.029510634
102	0xbe1fc68b	-0.15603082
103	0xbca40b86	-0.020025026
104	0x3db9e07b	0.090760194
105	0xbdfa760a	-0.122295454
106	0xbdaaa425	-0.08332089
107	0x3e01346d	0.12617655
108	0x3d3d9b7b	0.046290856
109	0x3dae4b8f	0.085105054
110	0xbd74e91e	-0.05979263
111	0xbc7159c8	-0.014730878
112	0x3d6e8b04	0.058238044
113	0xbc0677f5	-0.008207311
114	0x3e3bfb60	0.1835761
115	0xbcc339cc	-0.02383127
116	0x3b1d857e	0.0024035866
117	0xbd28b8c1	-0.04119182
118	0x3d271b54	0.040797547
119	0xbda5b385	-0.08090881
120	0x3d871d5d	0.065973975
121	0x3e7d1f4c	0.2471897
122	0xbc872661	-0.016497793
123	0xbe00b7e0	-0.12570143
124	0xbad1bc7d	-0.0016001608
125	0x3d3df592	0.046376772
126	0xbdb4fad1	-0.08836902
127	0xbc45214f	-0.012031867
128	0x3d70103e	0.05860924
129	0x3db6fec9	0.08935315
130	0xbd2e4c78	-0.042553395
131	0xbe149cec	-0.14512986
132	0xbd873800	-0.06602478
133	0x3dbc12a9	0.09183247
134	0xbe052401	-0.13002016
135	0xbc09826e	-0.008392913
136	0x3d008548	0.031377107
137	0xbd9556af	-0.07291924
138	0xbdafbf26	-0.085813805
139	0xbd4e7fe6	-0.050414942
140	0x3c193cfd	0.00935292
141	0x3d04bd6b	0.032407206
142	0xbd862866	-0.06550674
143	0xbe98f3a5	-0.29873386
144	0xbdb03f2b	-0.08605798
145	0xbdb2ffd0	-0.087401986
146	0x3dbde6e9	0.09272558
147	0xbde6a0d5	-0.11261145
148	0x3d7c6ebe	0.06162905
149	0xb903e210	-0.00012577348
150	0x3a878e40	0.0010342076
151	0x3c5e1c37	0.013556532
152	0x3ddf652d	0.109079696
153	0xbe592a70	-0.21207595
154	0x3964cdd0	0.00021820446
155	0xbd70d6e6	-0.058798693
156	0xbd431d5a	-0.047635414
157	0xbe5b9055	-0.21441777
158	0xba34805c	-0.0006885582
159	0xbe0fa405	-0.14027412
160	0xbe1ebd71	-0.15501954
161	0xbcd6bdc9	-0.026213543
162	0xbca488ba	-0.020084728
163	0xbcee9270	-0.029122561
164	0xbe042ff4	-0.12908918
165	0xbe36e772	-0.17861727
166	0xbd43fe29	-0.047849808
167	0xbdd0b7d3	-0.10191312
168	0x3b2bf894	0.0026240693
169	0xbe118bdc	-0.14213508
170	0xbd03989c	-0.03212796
171	0x3cf35b28	0.029706553
172	0xbe308399	-0.172377
173	0xbb5d7c6c	-0.0033796085
174	0xbd2c6886	-0.04209187
175	0x3d29fed9	0.041502807
176	0xbdf5887e	-0.119889244
177	0x3dad2ad8	0.084554374
178	0xbd80e085	-0.06292824
179	0xbdb55cb3	-0.088555716
180	0xbd47ec86	-0.04880955
181	0x3dc5e264	0.09662321
182	0xbc6460db	-0.013939108
183	0xbb32b8cd	-0.0027270794
184	0xbea2ce49	-0.31798008
185	0xbe434fc2	-0.19073394
186	0x3caf3703	0.021388536
187	0xbe3b7715	-0.18307145
188	0xbe0ccadd	-0.13749261
189	0x3d3b4c05	0.045726795
190	0xbd868e03	-0.06570055
191	0x3cce3f90	0.025176793
192	0xbdcefad2	-0.10106434
193	0x3b19750c	0.0023415713
194	0xbdb1549f	-0.08658718
195	0xbdacf73c	-0.08445594
196	0xbcea1cea	-0.02857824
197	0x3bb268d1	0.005444624
198	0xbd06277d	-0.032752503
199	0xbdb0d014	-0.08633438
200	0xbe21d247	-0.1580287
201	0xbe3d46f5	-0.18484099
202	0xbd00bb2a	-0.031428494
203	0xba3d5ab2	-0.00072232925
204	0xbbaa054c	-0.0051886197
205	0xbcdb15a4	-0.026743717
206	0xbcc4b4b5	-0.02401195
207	0x3ce2eff9	0.027702319
208	0xbd85a39b	-0.06525346
209	0xbddeffd5	-0.1088864
210	0x3daca244	0.08429387
211	0xbd1aa993	-0.037759375
212	0xbda2183f	-0.07914781
213	0xbe2b8bdd	-0.16752572
214	0xbe166f0f	-0.14690803
215	0x3bb7b95e	0.0056068143
216	0xbd88722a	-0.066624
217	0xbd8410a6	-0.06448488
218	0xbde8d088	-0.11367899
219	0x3e1c5d69	0.15270008
220	0xbdf22062	-0.11822583
221	0x3c8e4264	0.017365642
222	0xbdfa19d2	-0.12211956
223	0xbe2e7502	-0.17036822
224	0xbdd9d69d	-0.10636637
225	0x3d3194a0	0.04335463
226	0xbe53055a	-0.2060751
227	0x3d57e6bd	0.052710284
228	0x3d6fe4e7	0.058567908
229	0x3d83b774	0.06431475
230	0xbd959b9a	-0.07305069
231	0x3db9db9c	0.0907509
232	0xbd28e64b	-0.04123525
233	0xbb16aa3a	-0.0022989647
234	0x3de7c15d	0.11316178
235	0xbe2db9eb	-0.16965453
236	0xbe3f4525	-0.1867872
237	0xbd1740cf	-0.03692704
238	0xbe3b2060	-0.18274069
239	0xbe211b31	-0.15733029
240	0x3dd08b36	0.101828024
241	0xbe20660e	-0.15663931
242	0xbe5beb80	-0.21476555
243	0x3d000c9f	0.031262036
244	0xbd299afc	-0.04140757
245	0xbd79d909	-0.060997996
246	0xbd2e18b8	-0.042504042
247	0x3a9c4242	0.0011921602
248	0xbc45e362	-0.012078138
249	0xbd4b1b3f	-0.04958653
250	0xbe090511	-0.13380839
251	0xbe717bad	-0.23582335
252	0xbe12b62a	-0.14327303
253	0xbe31be1d	-0.17357679
254	0xbc8f600c	-0.017501853
255	0xbdb6c0d8	-0.08923501

bias f4 [64]
0	0xbe1c7520	-0.15279055
1	0x3ec57c71	0.38571504
2	0x3d9dd3e0	0.077064276
3	0x3e1741ec	0.14771241
4	0xbe7de6f5	-0.24795134
5	0x3e4e96f6	0.20174775
6	0xbd92377f	-0.07139491
7	0xbe8b81fd	-0.2724761
8	0x3f4d48cf	0.8018922
9	0xbddc7ba6	-0.107657716
10	0xbe0caa8a	-0.1373693
11	0xbefb0d9c	-0.4903382
12	0x3ee20072	0.44140965
13	0x3e6068fa	0.21915045
14	0x3e9932d0	0.2992158
15	0xbe83dbda	-0.2575367
16	0x3e998c60	0.2998991
17	0xbec911d8	-0.39271426
18	0x3ec0fc8b	0.37692675
19	0x3d6b3560	0.05742395
20	0x3d0d55ba	0.034505583
21	0xbb82e8a2	-0.003995017
22	0xbea4f6a4	-0.32219422
23	0x3eab5c80	0.3346901
24	0x3f0a2fdc	0.5397928
25	0x3c3cbabf	0.011519133
26	0xbe015224	-0.1262899
27	0x3d6e3326	0.058154248
28	0x3e728289	0.23682608
29	0xbe2dc590	-0.16969895
30	0xbdce82e6	-0.10083561
31	0x3f4c286b	0.7974917
32	0xbe112390	-0.14173722
33	0xbdf11b7f	-0.117728226
34	0x3e4c45be	0.1994848
35	0x3eb27ca3	0.34860715
36	0x3d72e7f4	0.05930324
37	0x3f4decc4	0.804394
38	0x3ebdaa94	0.37044203
39	0x3eee7b8e	0.4657864
40	0x3e67f0ab	0.22650401
41	0xbe39b1ce	-0.18134233
42	0x3ea824d6	0.32840604
43	0x3d806477	0.06269162
44	0xbc5f3e36	-0.013625672
45	0xbe7b84a7	-0.24562322
46	0x3e943627	0.28947565
47	0x3ef3955f	0.475749
48	0x3f191fb7	0.5981402
49	0xbe0a2b42	-0.13493064
50	0x3deac2f4	0.114629656
51	0x3de9afef	0.1141051
52	0x3d751a1d	0.059839357
53	0x3e21caa3	0.15799956
54	0xbe51e406	-0.2049714
55	0xbe0af92b	-0.13571613
56	0x3d2a939c	0.041644678
57	0xbec06136	-0.37574166
58	0xbdc6b5d4	-0.0970265
59	0x3da0e1dc	0.07855579
60	0xbe2d8a04	-0.1694718
61	0x3e344810	0.17605615
62	0x3e76bdd2	0.24095848
63	0x3e8a4c24	0.27011216

weight f4 [10, 64]
0	0x3d5a2d02	0.05326558
1	0xbd32c63d	-0.043646086
2	0x3d86ee52	0.06588425
3	0xbdc2ee37	-0.09518092
4	0xbb848e5e	-0.004045292
5	0xbc0cf281	-0.008602739
6	0xbd3bd3b7	-0.045856204
7	0x3d889f09	0.066709585
8	0xbc24e966	-0.010065412
9	0xbc692828	-0.014230765
10	0x3d2e7862	0.042595275
11	0xbcdd7d2f	-0.027037231
12	0xbd93fc71	-0.07225884
13	0x3d91527b	0.0709581
14	0xbd7cefd8	-0.06175217
15	0xbae99ded	-0.0017823555
16	0xbdfdfe65	-0.124020375
17	0x3c24236d	0.010018212
18	0xbd845bb4	-0.064628035
19	0xbd8b63f3	-0.06806173
20	0xbddb1c26	-0.10698728
21	0xbd0b5f00	-0.034026146
22	0x3d738b22	0.05945886
23	0xbd8bd3d1	-0.0682751
24	0xbcbf1d74	-0.023329474
25	0x3d0d3634	0.03447552
26	0x3d219620	0.03944981
27	0xbe09a80a	-0.13443008
28	0xbdfb19d0	-0.12260783
29	0xbd883511	-0.066507466
30	0x3d12d086	0.035843395
31	0xbd9b3b05	-0.075796165
32	0x3d9df530	0.077127814
33	0xbbeb4c4c	-0.007180726
34	0x3c2a9276	0.010410896
35	0xbd0fee5e	-0.035139434
36	0xbcbf5aa3	-0.023358649
37	0x3c1e8b99	0.009676837
38	0xbd8b6514	-0.068063885
39	0x3d394284	0.04522945
40	0x3d826158	0.06366223
41	0x3d1f9f23	0.038970124
42	0x3d1e1122	0.038590558
43	0xbbb15cee	-0.0054126894
44	0x3d00d325	0.031451363
45	0x3d739a51	0.05947334
46	0xbd7fc48b	-0.062443297
47	0xbd94c67e	-0.07264422
48	0xbd58623d	-0.052828062
49	0x3e0d3ae2	0.13791993
50	0xbdac77f4	-0.08421317
51	0xbc9a9fcf	-0.01887503
52	0xbca57779	-0.02019857
53	0xbd23fe39	-0.040037367
54	0x3d0051d2	0.03132803
55	0xbd6353da	-0.05549989
56	0x3cb6fe01	0.022337915
57	0xbd3dbc33	-0.04632206
58	0x3c3d1862	0.011541458
59	0x3cd8698b	0.026417514
60	0x3db34690	0.08753693
61	0x3b3ec89a	0.0029111267
62	0xbcaf680e	-0.021411922
63	0xbd14bbe0	-0.036311984
64	0xbdd3c9a2	-0.10341193
65	0x3d0379b1	0.032098476
66	0x3b29e95e	0.0025926451
67	0xbd31e895	-0.043434698
68	0x3d9095e3	0.070598386
69	0xbcb1409d	-0.021637255
70	0xbdb03f09	-0.08605773
71	0xbd67b2fe	-0.056567185
72	0x3d1edc68	0.038784415
73	0xbd12bcb8	-0.035824507
74	0x3d84e246	0.06488471
75	0x3a804856	0.0009787183
76	0xbd914267	-0.07092743
77	0x3becdbc0	0.0072283447
78	0x3d395e42	0.045255907
79	0xbd5a4049	-0.053283963
80	0xbd6d7cf7	-0.057980504
81	0xbdf4bd73	-0.11950197
82	0x3d43f925	0.047845025
83	0x3d4d31ce	0.050096326
84	0xbcd308d3	-0.025761044
85	0x3d062da1	0.03275836
86	0xbb818230	-0.003952287
87	0xbb2a61d4	-0.0025998252
88	0xbd6a8693	-0.057257246
89	0x3d7278e1	0.05919731
90	0xbdf3680e	-0.11885081
91	0x3ce87d22	0.02837998
92	0xbcda6085	-0.026657352
93	0xbd82b7d6	-0.0638272
94	0xbd35e3da	-0.04440675
95	0xbd98da55	-0.074635185
96	0xbd14fa0c	-0.036371276
97	0x3dceca7d	0.10097215
98	0x3c84b14b	0.016197821
99	0x3da25733	0.07926788
100	0x3db72cfb	0.08944126
101	0x3c8a50b5	0.016884187
102	0xbce942ff	-0.028474329
103	0x3caf99a9	0.021435576
104	0xbe2a76fd	-0.16646953
105	0x3d34222e	0.04397791
106	0xbba9f941	-0.005187184
107	0xbca6b9c0	-0.020352244
108	0xbd2474db	-0.040150505
109	0xbd6d272c	-0.057898685
110	0xbd3c7de1	-0.046018485
111	0x3d75ea8e	0.060038142
112	0xbd4581a0	-0.048219323
113	0x3d08c8d8	0.033394665
114	0x3d8f4ec8	0.06997448
115	0xbc11bcc5	-0.008895104
116	0x3dadf574	0.08494082
117	0x3dcc5cea	0.099786595
118	0x3c89e4a9	0.016832666
119	0x3d85c55b	0.06531783
120	0xbc74ce45	-0.014941757
121	0xbdd80d30	-0.1054939
122	0x3d37c99a	0.044869997
123	0x3d3e88d1	0.046517197
124	0x3da37426	0.07981138
125	0x3c4bad5a	0.012431467
126	0x3d887722	0.06663348
127	0x3d394995	0.04523619
128	0xbd1166b6	-0.035498343
129	0x3dca326d	0.09872899
130	0x3cc49152	0.023995075
131	0xbcd608aa	-0.026127178
132	0x3d144804	0.036201492
133	0x3d62da8d	0.055384208
134	0xbdb4ff59	-0.08837766
135	0xbd1c185c	-0.03810917
136	0x38ee8d60	0.000113750575
137	0x3b7b2e3f	0.0038327125
138	0x3ce662b7	0.028123243
139	0x3e11bf0a	0.14233032
140	0xbdc66457	-0.09687107
141	0x3e067b1c	0.131329
142	0x3d533cd9	0.0515717
143	0xbcb0a9aa	-0.021565277
144	0x3d09e8ad	0.033669163
145	0x3d2c380c	0.042045638
146	0x3c5dbd89	0.013533958
147	0xbd15e107	-0.036591556
148	0xbcbe5345	-0.023233065
149	0x3d206e9a	0.039167978
150	0xb96a6504	-0.0002235361
151	0xbccb0f3b	-0.024787536
152	0xbc95b40f	-0.018274335
153	0x3dd123e5	0.102119245
154	0x3ceaf0a1	0.028679194
155	0x3d13fc3f	0.036129232
156	0x3c4978b1	0.0122968415
157	0xbd81e641	-0.063427456
158	0xbc168b26	-0.009188449
159	0xbd93c264	-0.072148114
160	0x3d6ec290	0.058291018
161	0x3d3f4a48	0.0467017
162	0x3dbf5a34	0.09343377
163	0x3d2bd223	0.04194845
164	0x3d36735c	0.04454361
165	0x3cc0f4c5	0.023554215
166	0xbda696cd	-0.08134232
167	0xbc3f9b77	-0.011694781
168	0x3d154147	0.036439206
169	0xbd3dbc02	-0.046321876
170	0x3cf215c1	0.029551389
171	0xbb9384f2	-0.0045019323
172	0x3c3a8bf0	0.011385903
173	0xbcf419bf	-0.029797433
174	0xbd8e8b7b	-0.069601975
175	0x3db4515a	0.08804579
176	0x3c99e399	0.018785285
177	0x3d9b0feb	0.075713955
178	0x3c0dee3b	0.008662756
179	0x3d99ac82	0.075036064
180	0x3db15b97	0.086600475
181	0x3bdabfb3	0.0066756844
182	0x3b98ac30	0.004659198
183	0x3ca2176e	0.019786563
184	0x3c95ac33	0.018270588
185	0xbd28c48f	-0.041203078
186	0x3c196ec6	0.009364789
187	0x3c7c0969	0.015383103
188	0x3d81aadf	0.06331419
189	0x3c86c9d1	0.016453655
190	0x3d78879d	0.060676206
191	0xbc2f9364	-0.010716293
192	0xbce4f921	-0.027950825
193	0xbc056dae	-0.008143825
194	0xbc38ca80	-0.0112787485
195	0xbcea94c5	-0.028635392
196	0x3cf3f76c	0.029781066
197	0xbb45dd97	-0.0030191892
198	0xbc7ecafa	-0.015551323
199	0xbcfb26ba	-0.030658115
200	0xbbc450fc	-0.0059910994
201	0xbd2f0ed0	-0.042738736
202	0x3da06f2c	0.07833704
203	0xbdcf3b71	-0.101187594
204	0xbd67ebba	-0.05662129
205	0xbc88bb29	-0.016690807
206	0x3e001f6f	0.12511991
207	0x3d84dac5	0.064870395
208	0xbd2b979e	-0.04189264
209	0x3c8c027b	0.017091027
210	0x3dd71afb	0.10503193
211	0x3d75f195	0.060044844
212	0x3aa96335	0.0012923243
213	0x3dcfcac5	0.10146097
214	0x3c2478a6	0.01003853
215	0x3a9c6e10	0.0011934657
216	0xbbf2ee8a	-0.00741369
217	0x3dad5987	0.084643416
218	0xbd346860	-0.044044852
219	0xbc9fff42	-0.019530896
220	0x3cadfe29	0.021239357
221	0xbe021723	-0.12704138
222	0x3c00d4f1	0.007863269
223	0xbce7d10c	-0.028297924
224	0x3d130204	0.035890594
225	0x3d99128d	0.074742414
226	0x3da9e609	0.08295829
227	0x3db5c892	0.088761464
228	0x3bfd9d01	0.0077396636
229	0x3d968f62	0.07351567
230	0x3c2568e0	0.010095805
231	0x3d04c3e5	0.032413382
232	0xbcbf9cdc	-0.023390226
233	0x3ba2a713	0.0049637645
234	0xbb3ae747	-0.00285192
235	0xbcd07477	-0.02544616
236	0xbcff36c2	-0.03115404
237	0xbd8bae88	-0.068203986
238	0xbdabc2f0	-0.08386791
239	0x3d0f2310	0.034945548
240	0xbd7b57eb	-0.061363142
241	0x3d886ba5	0.066611566
242	0xbcd30349	-0.025758402
243	0xbd80bf90	-0.06286538
244	0x3c494e26	0.012286698
245	0x3d447f1a	0.047972776
246	0xbc96d2a1	-0.018410983
247	0xbdc57473	-0.096413516
248	0x3c9f3283	0.019433266
249	0xbcfffc7d	-0.031248325
250	0x3da7fc98	0.08202475
251	0xbd079448	-0.033100396
252	0x3d408404	0.0470009
253	0x3d36f016	0.044662558
254	0x3cafe9ed	0.02147385
255	0xbd846397	-0.06464308

bias f4 [10]
0	0x3eb05313	0.3443838
1	0xbf25b58f	-0.6473016
2	0xbd42912c	-0.047501728
3	0xbe91bf9c	-0.284665
4	0xbe49430e	-0.19654486
5	0xbe52f3b9	-0.20600785
6	0xbea6f2e3	-0.32607183
7	0xbec32350	-0.3811288
8	0x3f5ef712	0.8709575
9	0x3ea62787	0.32452032
