models/model.pth (torch, 974911 bytes, 8 tensors)

weight f4 [256, 784]
00000000: fa86 b5bc 6f13 0fbd f070 ce3b 7513 89bc
00000010: 388e ddbb a49f fdbb a4c5 f8bb 337c babc
00000020: ea8c 0abd 48d8 8b3c e0cc 8b3a f189 013d
00000030: b737 013d b640 b53c 3205 62bc 2889 d53b
00000040: ddbd 08bd dc70 d43c 2c45 87bc 7cc2 8d3c
00000050: 07a7 9abc 785c 203c 72a3 fa3c 00e8 47b9
00000060: c851 a9bb d063 773b 66ca fe3c 0049 4fb9
00000070: b85c f3bc 5349 9fbc a03d 1fbc dcba dbbb
00000080: 98f7 da3c 064c 3abc 66a2 f13c 9206 eb3c
00000090: 389a bdbc 2c29 a7bc fca3 d93c 34e8 263c
000000a0: 3892 973b 303e 913c 1321 0d3d 6fab 053d
000000b0: 7591 263d 6dd4 ac3c fefb 853c ae27 d53c
000000c0: 236f 0d3d 75e1 fcbc f2d9 f93c c0a3 e5ba
000000d0: ce54 d9bc f0e8 cc3c 80ba a3b9 3e68 a7bc
000000e0: 64d2 383c c99d 103d 39e1 103d a35f e7bc
000000f0: 9cbb c5bb 9016 64bb a80e 4f3c 8f59 0a3d
00000100: be5d 9bbc f078 9d3b 3843 aabb c4cd 04bd
00000110: 10cf b23a 3af1 523d 8dee e33c 679e ccbb
00000120: 8737 623b 9958 4bbc 8ffc 283c 78f3 75bc
00000130: eccf 263c 0ecd a5bc 1111 0f3d a4a6 113d
00000140: 6ad2 4abc 23a7 87bc d1d6 e8bc a424 723c
00000150: 0027 db3c 115e 103d 4052 8fbc 5cec 9c3c
00000160: c0a3 cebb be6e 0abd dc05 04bd 1ac6 903c
00000170: 60e9 453c 3c93 053c f1fb eabc 7a7e dabc
00000180: 82f5 453c f899 f6bc 4432 303d f676 f83b
00000190: 7336 e33b b1b9 07bd 978b 743c 80f0 1bbc
000001a0: 8c2e b9bb c278 753c 4df5 813c 39a6 62ba
000001b0: deee e93c 5e6a b5bc aeb4 fa3c 4eef e83c
000001c0: 1ac3 b1bc 4af8 c33c 387e e6bb bc62 14bc
000001d0: 9c7b f7bb c86b 683c 18ae b53c c574 083d
000001e0: 5ebd aebc 86f1 cb3c 731f eebc 4df3 9c3a
000001f0: c479 f9bc 89c6 9b3c 6402 23bc ebbd 0fbd
00000200: 086f 4b3c 99ff 8fbc 9023 66ba 1889 31bd
00000210: 27d4 3e3d 27e4 7e3c 5ff6 423c 1f0c 293d
00000220: 96ca a43c 40fe 9ebb f2bc 23bc c09d c03b
00000230: f046 f43b 4ed7 823c 809c fb39 e8c4 b63b
00000240: 40e9 9ebc f462 603c 1a90 a33c de3b eabc
00000250: 852e 08bd 6a28 9aba b563 27bd 6dc8 0bbc
00000260: 05bc 053c 768b 343b 2413 33bd 63d1 1dbd
00000270: 0fee 0abd 3333 fa3b 804c 0abc 231f 0a3c
00000280: 2b80 c7bb b2a8 293c c8fc f43c 0cd1 2c3d
00000290: e118 a8bb 6a99 843c 482d 943c 4098 7c3c
000002a0: e065 c7bc 8ee5 883c 5c85 7ebc 3818 7f3c
000002b0: 89a0 033d 2370 313d 82aa 933c eff1 e53a
000002c0: 9c52 0bbd 3502 f3bc 6ea4 dabc e133 073d
000002d0: e5d2 4b3d 48c6 383c 414e 103c a8f7 86b8
000002e0: ddf4 64bd b9fa 8dbc c15f 4cbd 2954 08bc
000002f0: 33f4 fcbb 6cd3 2c3c 5287 4ebd 038f 36bc
00000300: 1c60 0c3d 96f2 6c3c 24d5 1abb ab3c 0bbd
00000310: 2043 cf3a 80d8 0dbd aee2 ac3c 03e8 e8bc
00000320: 7ff7 0abd 242c 033c 32f3 263d d4c8 353d
00000330: 85cf 3d3c 2798 90bc 19f1 26bd e837 a3bb
00000340: 054b 273d 477d 1abc a6b7 a2bb 6fa7 2bbd
00000350: 953a c4bc 6896 1ebc e90a a8bc 6122 40bd
00000360: 9ff4 16bd d6ce 82bc 2a9b 3abd 68c9 0a3c
00000370: 052b 2c3d bfb4 14bd 2df6 483b 5fc4 033d
00000380: 62c1 983c d418 1e3c 7c0e 783c 46c8 1cbc
00000390: b7e7 9dbc 4473 253d 921e 023d 04ac 02bd
000003a0: c538 41bd 0da7 2bbd 6df2 f5bc 69ad 9abc
000003b0: ea0d 3bbd 451b 09bd 566f efbc 19d8 dbbb
000003c0: c0e0 02bd f8e0 483c 4c6f 8dbc fb49 84bb
000003d0: caac 5cbc a19e 5cbc 8e96 05bb 1bcc 073d
000003e0: e9bd 623c b843 a53c b5ae 353c b825 8b3c
000003f0: 1092 253c 54ef 94bb 00ce a63b d3cb e3bc
-0.022159088 -0.034930643 0.0063000843 -0.01673291 -0.0067613386 -0.007739978 -0.00759192 -0.0227643
-0.033825792 0.017070904 0.0010665916 0.03162569 0.031547274 0.022125583 -0.013795184 0.0065165944
-0.033384193 0.025932722 -0.016512476 0.017304651 -0.018878473 0.009787671 0.030595515 -0.00019064546
-0.00516722 0.0037748702 0.03110237 -0.00019768253 -0.029707298 -0.019444143 -0.009719282 -0.006705625
0.02672939 -0.011370664 0.029496383 0.028689656 -0.023144826 -0.020405374 0.026567452 0.0101871975
0.004625585 0.017729849 0.03445537 0.032634195 0.040666062 0.021097386 0.01635551 0.026019897
0.034529816 -0.030869225 0.030499432 -0.0017520115 -0.026529696 0.025013417 -0.00031228736 -0.020435449
0.01128063 0.035306726 0.03537104 -0.028243845 -0.0060343277 -0.0034803487 0.012637772 0.033776816
-0.018965598 0.0048056766 -0.0051960014 -0.032422796 0.0013642032 0.051499583 0.02782371 -0.006244469
0.003451796 -0.01241126 0.010314121 -0.015011661 0.010181408 -0.02023938 0.034928385 0.03555931
-0.012379268 -0.01655919 -0.028422745 0.014779244 0.026751995 0.03524596 -0.017495275 0.019155674
-0.0063061416 -0.03379702 -0.03223215 0.017672587 0.012079567 0.008152779 -0.028684588 -0.026671637
0.012082459 -0.030102715 0.043016687 0.0075825406 0.006933981 -0.033136073 0.014925859 -0.009517789
-0.005651301 0.014982404 0.015864039 -0.0008645985 0.028556284 -0.022145446 0.030603733 0.028434422
-0.021699477 0.023922104 -0.0070340894 -0.009056743 -0.007552577 0.014185853 0.022177741 0.033314485
-0.021330532 0.02489544 -0.02906773 0.0011974365 -0.03045357 0.019015567 -0.0099493 -0.03509323
0.012416609 -0.017577933 -0.0008779103 -0.043343633 0.046589043 0.015557325 0.01189956 0.041271325
0.020116132 -0.0048520863 -0.009993779 0.0058781803 0.0074547455 0.015971806 0.00047991052 0.0055776723
-0.019398332 0.013695467 0.019966174 -0.028593 -0.03324749 -0.0011761312 -0.040866572 -0.008531672
0.008162503 0.0027548946 -0.043719426 -0.038529765 -0.033918437 0.007635498 -0.008441091 0.008430275
-0.006088277 0.0103551615 0.029905692 0.04219155 -0.005129919 0.016186435 0.018087998 0.015417159
-0.02434057 0.016711023 -0.015534725 0.015569739 0.03213552 0.043319833 0.01802564 0.0017543415
-0.03401433 -0.029664138 -0.026689734 0.03300846 0.04976167 0.011277743 0.00880772 -6.4357475e-05
-0.055897582 -0.017331468 -0.049896006 -0.008320847 -0.0077195405 0.010548454 -0.05042202 -0.011142495
0.034271345 0.014462134 -0.0023625577 -0.033993404 0.0015812851 -0.0346303 0.021104183 -0.028430944
-0.033927437 0.008006129 0.040759273 0.044380978 0.011585121 -0.017650677 -0.040757272 -0.00498103
0.04084303 -0.0094292825 -0.0049657403 -0.041907724 -0.023953715 -0.009679414 -0.020513015 -0.046907786
-0.036854383 -0.015967768 -0.045558132 0.008470871 0.042033214 -0.036305185 0.003066431 0.032169696
0.0186469 0.009649474 0.015140172 -0.009569233 -0.01927553 0.04039313 0.031767435 -0.031902328
-0.04717328 -0.04190736 -0.030022824 -0.018881517 -0.045667566 -0.033473272 -0.029227894 -0.0067091105
-0.03195262 0.012260668 -0.017264985 -0.0040371395 -0.0134689305 -0.013465554 -0.0020383927 0.033153635
0.013839223 0.020173892 0.011089017 0.01698576 0.010105625 -0.0045451317 0.005090475 -0.027807152

bias f4 [256]
00000000: 5bdf 1ebc e886 a2bd 9c79 11bc 41da ecbd
00000010: d7f6 d7bb c971 a1be f704 c0bc 71b6 b9bc
00000020: 79d2 71be d37e 96bc 74f3 0bbc 7c12 f53d
00000030: 4515 fc38 8473 e33c 6c75 30bd 9ed7 bb3b
00000040: bf53 063d 577c ac3c 5c07 19be 4631 9ebe
00000050: 9637 65bd bb4b 44bd d7d7 0ebd f29e 26bb
00000060: dd10 173c 9148 b7bc 3bcd 0a3c 9d55 a0bc
00000070: 6125 45bd 0592 37be f816 1dbd 8ce5 edbd
00000080: 5228 8abd f3e8 4a3d 3fc8 11bd 167b c3bb
00000090: 9cf6 09bd 022b 083c 9a5b 99bb dc3e 24bd
000000a0: 1463 03be 720c 19bd 8d68 f2bc a1b5 18bd
000000b0: 92b2 88bc 0107 173c 553a 053e ba1e 093c
000000c0: 3ed6 bebc aa29 733a cf82 36bd 0bbd 2fbe
000000d0: 77c9 5d3b 8314 a0bd ea88 8ebd 92f0 46bd
000000e0: f848 c8bd 8b9b 86bd 5aa1 21bd 0876 66bd
000000f0: db58 6bbc 02d4 b3bd 7023 09bd 3edc c3bd
00000100: fea8 79bd 3ffc 19bc 0b35 d0bc 5bad c03c
00000110: fead 8ebc f4e3 d4bd b3b0 5e3e 7d18 aebc
00000120: 3cb0 1bbc 853a 91bd bf69 c2bc 7b2d 28bc
00000130: 84e7 bd3b addc 4abe ec44 65bc c222 1dbd
00000140: 33e9 13bd ce14 36bd 5995 573b 8176 48bd
00000150: 13da 3c3d a7c7 763b 34ed 81bd 1032 7c3d
00000160: 7a71 1ebd cf82 6abe 3da3 03be a50f 123d
00000170: 8b4e a6bb d428 34be ca73 e2bc b001 1bbe
00000180: 7d73 a0bd f74e 0dbb 79aa d8bc e277 60bc
00000190: 8d78 6cbe 37ff 8fbd d7cd 0e3e ef00 b3bd
000001a0: d0ab bcbb b3e5 84bc 334f 34bd d467 c53d
000001b0: 82af 45bd 49d7 5dbc 6642 63bd 44d4 fbbc
000001c0: 9ace d3bd 6268 5cbd 149f 423c 5e0a 093d
000001d0: b0bd 083b c4b6 d1ba 3742 373c a93d 1ebe
000001e0: 5313 1f3b 268f 1ebe c761 9cbc 5d35 10bd
000001f0: d79e 8ebe d69e c4bc 4b78 65be 67c7 25be
00000200: 5594 8ebd f6bb 643c 848c 8fbd 016e 9abd
00000210: a028 acbd b609 32bd c33d 79bc 6846 1cbd
00000220: aa15 e63c f5cc 06be 684e 07bd 45a1 81bc
00000230: 3f2c 9abc a454 d9bb 62b4 89bb c59d 343d
00000240: fa51 81bc cb9a 353d 3477 98bd b836 c1bd
00000250: 131f 92b9 18be 913b b2d5 55bd 69c9 943a
00000260: db89 afbc 4695 1fbd 3880 07be 7ca4 bdbb
00000270: f5b3 b8bc 0754 e3bb 770b 0cbe 1baf 24bd
00000280: bb1e 4ebc 98de 923a 1e68 de3a 0735 24b9
00000290: 8393 64be 9064 6bbd bb1b 0abd 0eb8 fdbc
000002a0: f339 87bd 226f ccbd 831f 29be bcc3 723c
000002b0: c410 c9bc a292 c3bc c51d 3abe 0e48 0ebd
000002c0: 7691 75be 0a58 363d 890d 8cbd 9515 80bd
000002d0: eb94 92bd 250e 3f3d a4c2 39bd ccb8 61bd
000002e0: 65ce 1abd 29fa 283c 6141 a9bc 5fc0 28be
000002f0: 82eb 74bd b440 8bbc dda5 1dbd 979c 16bd
00000300: 67aa a73b 8b60 bcbd 2843 1fbd 6113 acbc
00000310: 85e2 c7bc 35f4 bbbc 8299 57be eda1 35be
00000320: 2c38 5bbd 852b eabd 7401 eabc e024 f2bb
00000330: 4f67 5cbe a56e 26be 7d85 7dbd 899d 823c
00000340: 2598 88be 7730 cabd 5017 04bc fe59 7eba
00000350: c951 773e 9914 c63b 7289 8bbb 0a82 20bd
00000360: dd4e 9ebd ffbd d13d 7540 8bbd b624 6abd
00000370: 7fad c4bd bb0c e83d 9809 8cbd b453 49bd
00000380: 5b65 6ebd a115 7d3c a089 70bd 195b 29bd
00000390: d817 0ebe 63e3 02bd 616a 46bd bd1d 5bbc
000003a0: 7ad6 463d d560 d0bc 51b0 1dbd 8849 a7bb
000003b0: d44c 17bd 56e8 24bd 3bd6 3cbe ec1d 0ebd
000003c0: 28c8 753a 0634 6ebd 21cb 5c3e e16a 333e
000003d0: be26 f7bc 03c2 1bbe ff29 b7bc e276 0fbc
000003e0: 19cb 31bc f5f9 acbc 8de0 9bbb 0a66 7c3c
000003f0: 733b 093e 5ed2 10be 9eca 43bc d6c3 a4bc
-0.009696807 -0.079358876 -0.008879092 -0.11565066 -0.006590705 -0.31532124 -0.023439867 -0.022670003
-0.23615445 -0.018371021 -0.0085419305 0.11966416 0.00012020258 0.027765043 -0.043080732 0.0057324907
0.03279471 0.021055384 -0.14944214 -0.30896968 -0.055961214 -0.047923785 -0.03487381 -0.0025424329
0.009220329 -0.02237347 0.008471782 -0.019572074 -0.04813135 -0.17926796 -0.038351983 -0.11616048
-0.06745972 0.049538564 -0.03559136 -0.0059656007 -0.03368245 0.008311035 -0.004680109 -0.04009901
-0.12830764 -0.037365384 -0.02959087 -0.03728259 -0.016686711 0.009217978 0.13010533 0.008369142
-0.023295518 0.0009275923 -0.044558343 -0.17161958 0.0033842006 -0.07816412 -0.06959708 -0.04856927
-0.09779543 -0.06572636 -0.039460517 -0.056264907 -0.0143644465 -0.08780672 -0.03348106 -0.09563492
-0.06095218 -0.009398519 -0.025415918 0.023520162 -0.01741695 -0.10395041 0.21747093 -0.021251911
-0.009502467 -0.0709124 -0.023732064 -0.01026475 0.005795421 -0.19810744 -0.013993483 -0.038363226
-0.036111068 -0.044453435 0.0032895415 -0.04894114 0.04610641 0.0037655623 -0.06344071 0.06157118
-0.03868244 -0.22901462 -0.12855239 0.03565945 -0.005075281 -0.175937 -0.027643103 -0.15137362
-0.07834528 -0.002156196 -0.026448475 -0.013700457 -0.23092861 -0.070311 0.13945709 -0.087404124
-0.0057577863 -0.01622281 -0.044020843 0.09638944 -0.04826308 -0.0135400975 -0.055483244 -0.030740865
-0.103421405 -0.053810485 0.0118787475 0.033457153 0.0020865016 -0.0015999903 0.01118522 -0.15453209
0.0024272993 -0.15484294 -0.019089593 -0.03520714 -0.2785556 -0.02400152 -0.2240917 -0.16189347
-0.06961886 0.013960829 -0.07009223 -0.07540513 -0.08406186 -0.043466292 -0.015212479 -0.038153082
0.028086502 -0.13164122 -0.03303376 -0.01582397 -0.018819926 -0.0066324044 -0.0042024115 0.044095773
-0.01578616 0.044337075 -0.07444611 -0.09434265 -0.00027870442 0.00444771 -0.05220575 0.0011351529
-0.02142804 -0.038960718 -0.13232505 -0.0057874303 -0.022546748 -0.006937507 -0.13676248 -0.040206056
-0.012580569 0.0011205254 0.0016968285 -0.00015660013 -0.22321896 -0.05746895 -0.033717852 -0.030971553
-0.0660285 -0.099821344 -0.16515927 0.0148171745 -0.024544127 -0.02387363 -0.18175419 -0.034736685
-0.2398127 0.044517554 -0.06838519 -0.062541164 -0.0715731 0.04664435 -0.04535164 -0.055107877
-0.03779449 0.010313549 -0.020661058 -0.16479634 -0.05979491 -0.016998626 -0.038488258 -0.03677043
0.005116749 -0.091981016 -0.038882405 -0.021005334 -0.024400005 -0.022943595 -0.21054652 -0.17737551
-0.053520367 -0.11434082 -0.028565146 -0.0073896497 -0.21523784 -0.16253145 -0.061894882 0.01594426
-0.26678577 -0.09872525 -0.008062199 -0.0009702741 0.24152292 0.006044936 -0.004258328 -0.039186515
-0.07729886 0.10241317 -0.067994036 -0.057163917 -0.09603404 0.11330553 -0.06837767 -0.04915209
-0.05820213 0.015447051 -0.058725 -0.041346643 -0.13876283 -0.031955134 -0.048441295 -0.013373789
0.048544385 -0.025436798 -0.038498227 -0.005105201 -0.036938503 -0.040260635 -0.18441097 -0.034696504
0.0009375834 -0.058155082 0.21561863 0.1752124 -0.03016984 -0.15210728 -0.022358892 -0.008756371
-0.010851645 -0.021115283 -0.004756993 0.015405187 0.13401584 -0.14142749 -0.011950163 -0.020112913

weight f4 [128, 256]
00000000: b6f0 993d 4232 93be 8026 4c3b 1e0d 183d
00000010: 1e94 6f3d b153 9abc c5b2 903d 8155 2f3d
00000020: b3d1 57bd c987 16bc f4cf fe3d 57d3 4fbd
00000030: 6510 ed3b 40ee 0cbe 073e 9c3c 685d 113d
00000040: 2d57 86bd a61f 9ebc 92b7 4bbe 73c3 06be
00000050: 22da 92bc fe82 993b 9828 353c b1c7 0abd
00000060: 14af ec3c 37b8 e03c 77aa d1be 6dc1 bfbc
00000070: beea 923c b09a 71be 4acf 74bc 0d0e 73bc
00000080: b180 f23c 4555 a9bd 6da9 8eba 568d f8bb
00000090: 5802 1d3b ab20 a83c 0cce 29bd 15fe a3be
000000a0: ef2c 15bd 07ef f8bc aa7d febb 51b3 94bd
000000b0: 77c7 a1bc 1ddc 113d 4f1b cfbb a432 94bd
000000c0: 74a0 a03d b34a ee3c 600c c23c ed7e b03c
000000d0: 90c5 773c a0b7 95bd b144 9dbb 99c1 81bb
000000e0: 3faa 91bd d24c c93d 8293 64bd 4fd7 b33b
000000f0: fcb9 dabc 3d50 a83d 2a26 163d 17cd a53d
00000100: 47bd 083e 5e51 7d3d c0c6 9e3d 0b4a 933d
00000110: a235 143c 7413 50be ea16 2f3c 093d f5bd
00000120: 52c8 b1be 2025 8abc 8b06 0bbd 54ae 91bc
00000130: fefd 353d 7200 e2bd f81c 9ebb f5ba 9c3c
00000140: cf4a 8fbe f3e5 02bc 0e25 1fbd f301 2b3d
00000150: 1b4e 2fbe 5ed9 ffbc 5e4f 283e e89a f0bb
00000160: 2970 bc3c fcdd f6bd 6a09 16bd 9c35 50be
00000170: 5071 453c b489 46bd b53d a73d b73e 9cbd
00000180: 5500 fe3b 6ff4 2b3d 014d 713d 4582 313d
00000190: b4ed 16be 446e fd3b b9fe 35be 174d 44be
000001a0: d2bd 6dbd 9134 33bd 6a32 9a3c fedc 22be
000001b0: e258 17bd 62c5 93bd 0a49 2ebd d28d 32bd
000001c0: 3ef6 673d 5197 123d 9c75 0abd 0743 6fbe
000001d0: e1a0 6dbd 02a7 a1bc a5b5 033d 8c8b 59be
000001e0: bf8b 223d fdbc 48be ac9a 4e3d 6726 5ebd
000001f0: e48f 7dbe 9f9b 13bc 0873 81be e314 05bd
00000200: 9e1b 803c 3ef8 b5bc cb0d c6bd 3140 a4bc
00000210: 4eee ad3d be3a 583d 3c4e 253c 9bc5 56bc
00000220: 05ef 4cbe 81b9 093e 18ed 06bd eb4a 47ba
00000230: 796d 6fbd b83f 3b3b 91e7 92ba beed f4bd
00000240: acad 903d 37b4 e13d e75d fa3c 5f17 5cbe
00000250: f2dd 87bc a8c7 e7bc 7b53 ecbd 3722 b1bc
00000260: 296f 063d a1f3 73bd e36b ecbd 1d93 4cbd
00000270: 561b 833d ed4a ed3c 3b5b d33d 24fd 24bc
00000280: 2bb5 4a3e 58da 25bd fa00 903c f461 dfbc
00000290: 2d63 943d 78fa 1d3d 3e17 3dbc 10a1 fcbc
000002a0: 0fb3 f8bd f6f3 9fbc 0088 13be cb6f 17be
000002b0: 6cbb 053d 541d 9c3d fc1f 13be e04d 9abb
000002c0: cd5b e8bd a3a8 bcbd ac13 ee3d 75d9 c7bd
000002d0: 68e8 e6bb 1c93 a5bd b0ef 283d f356 4b3d
000002e0: 8a9d 8a3c 4ef2 543d d35c dd39 9738 a2be
000002f0: 7ee7 903c 9983 83bc 440c ae3c 3af8 8ebc
00000300: fecb 323c 9725 b8bd 24d0 7abd 8d38 62bd
00000310: 5e26 8dbd 97b8 303c 808e be3b 2caf ebbb
00000320: c07d f23a df8a 2bbe 9941 d8bc 6b59 46bd
00000330: e08b 5dbe a7d7 74be 6ab7 173d 948a 093d
00000340: 0ee9 20be 22a3 abbc d838 6abb e272 39bb
00000350: 4c70 8dbd 29bb fd3c d406 37bd 711d 293d
00000360: cabe 9ebd f251 35bc 9032 0cbe 8a49 8dbd
00000370: 1d32 d73d e628 b3be b896 b1bd 7b65 8a3d
00000380: 550e f8bd bc5e 463d e320 31be 67f3 f4bb
00000390: cf7f bc3d d535 903c 7aa3 dcbc 6407 9f3d
000003a0: 7d02 bdbd 1bd7 a0bd d182 08bd 22be 993d
000003b0: 98b6 adbc 8737 98bc e961 d3bd f641 0d3d
000003c0: 67ec f6ba 10d6 62be 34e8 ecbd 64cc a6bc
000003d0: e565 febc d54b 3fbd b0b7 883d 399e febb
000003e0: 3b07 97bc 1043 b93b a947 a939 5a8b 903d
000003f0: 2ae4 85be c961 0bbe 9e2c 5dbc ac56 553d
0.07516615 -0.2874928 0.0031150877 0.037121885 0.058490865 -0.018838735 0.070653476 0.042806152
-0.05269022 -0.009187647 0.12442008 -0.05073866 0.0072346204 -0.1376276 0.019072546 0.03548947
-0.06559596 -0.0193022 -0.19894245 -0.13160495 -0.01792628 0.004684805 0.011057042 -0.033881847
0.028892078 0.02743159 -0.40950367 -0.023407662 0.0179342 -0.23594165 -0.014942 -0.014834893
0.02960238 -0.08268217 -0.0010884233 -0.007585208 0.0023957696 0.02052339 -0.041456267 -0.32029787
-0.036419805 -0.030387415 -0.007766445 -0.072607644 -0.019748433 0.035610307 -0.006320394 -0.072362214
0.07843104 0.029088354 0.023687541 0.021544898 0.015122786 -0.07310414 -0.0047994484 -0.003959846
-0.0711255 0.098291054 -0.055804737 0.0054883133 -0.026700012 0.08218429 0.03665749 0.080957584
0.13353454 0.061845176 0.07752752 0.07191857 0.00904599 -0.20319921 0.0106866155 -0.11974532
-0.34723145 -0.016863406 -0.033941787 -0.017783321 0.04443168 -0.11035241 -0.0048252307 0.019132117
-0.27986762 -0.0079893945 -0.038853697 0.041749906 -0.17119639 -0.031231578 0.16436526 -0.007342685
0.0230027 -0.12054059 -0.03663007 -0.2033295 0.012050942 -0.048471168 0.081660666 -0.076291494
0.0077515044 0.041981157 0.058911327 0.043337125 -0.14739114 0.007734092 -0.1777295 -0.19170032
-0.058042355 -0.043751303 0.018822867 -0.15904614 -0.03695 -0.07215382 -0.042550124 -0.04359228
0.05663132 0.035788838 -0.033803567 -0.23365413 -0.058014754 -0.019732956 0.03215565 -0.21244639
0.039684054 -0.19603343 0.050440475 -0.054235842 -0.24761921 -0.009009271 -0.25283074 -0.032490622
0.015638169 -0.022213098 -0.096705996 -0.02005014 0.08492719 0.052790396 0.010089453 -0.013108636
-0.20013054 0.1344967 -0.032940954 -0.0007602411 -0.05845401 0.0028571915 -0.0011207928 -0.11959408
0.07064375 0.110207014 0.030562354 -0.2149329 -0.016585324 -0.028293446 -0.1153936 -0.02162276
0.032820854 -0.059558515 -0.11544015 -0.049944986 0.06401698 0.028966391 0.10320135 -0.010070119
0.19795673 -0.040491432 0.01757859 -0.027268387 0.07245479 0.038568944 -0.011541186 -0.03083852
-0.12143528 -0.01952551 -0.14407349 -0.1478874 0.032649443 0.076227814 -0.1436767 -0.0047089905
-0.113456346 -0.092118524 0.11624846 -0.097582735 -0.007046748 -0.080846995 0.04124421 0.049643468
0.016920824 0.051988892 0.00042221564 -0.316838 0.01768851 -0.016053962 0.021246083 -0.017452348
0.010912893 -0.08991545 -0.061233655 -0.055229712 -0.068920836 0.010786197 0.005815327 -0.007192513
0.0018500611 -0.16752194 -0.026398467 -0.04842512 -0.2163539 -0.2391039 0.03704015 0.033579424
-0.15713903 -0.020951811 -0.0035739448 -0.0028297235 -0.069061846 0.030973034 -0.044684246 0.041287843
-0.07751234 -0.011066901 -0.13691163 -0.06898792 0.10507605 -0.3499214 -0.086713254 0.06757637
-0.121121086 0.04843019 -0.17297702 -0.007475305 0.09204065 0.017603794 -0.02693342 0.077650815
-0.0922899 -0.07853528 -0.03332788 0.07506968 -0.021205232 -0.018581165 -0.10321409 0.034486733
-0.0018838764 -0.22151971 -0.11567727 -0.020361133 -0.031054446 -0.04670318 0.066756606 -0.0077703265
-0.018436065 0.0056537464 0.00032287583 0.07057829 -0.26150638 -0.13611521 -0.013499407 0.05208461

bias f4 [128]
00000000: 24e4 5fbe 98ea 03be b58c e53d 6bc0 50bd
00000010: c543 40be f433 0f3e 65e0 89be ebd7 29be
00000020: 2d0f 40be 0b20 b5be 628a 36be 464d 5bbd
00000030: f4cb 81be 9b4f 5b3e 7c9a 10be e92d 953e
00000040: 91ec d7be 79e4 523e d5d7 a7be 1e75 bfbc
00000050: 3293 32be 115f 1abf 12f5 89be fae6 d5be
00000060: 7d32 2cbe ca33 b3be f5f2 3fbe c4f4 e7bd
00000070: 4e0c 83be 5937 143f 588a 93be 586b 44be
00000080: 503e 8bbe b166 3bbe f4b4 babe 32d3 87be
00000090: 29cd 3ebe f339 cc3e 4409 e8bd fb4d c9be
000000a0: e514 c4be 36ca 7cbe 76d1 09be 6ed1 5abe
000000b0: 24af fbbd dc0b 1a3e b910 9ebe 69f8 40be
000000c0: 5951 a8be 062c 4c3e 1ee5 4bbe 2d09 9dbe
000000d0: 4520 553e 91d4 d0be 5985 c5be f73f 033e
000000e0: 75e2 65be a7b2 75be de0e 61be e571 04be
000000f0: 192b 26be abe4 97be 8619 53be 24c3 b5be
00000100: 728e a9bd cb6d 85be a200 0bbe a8c8 0dbf
00000110: 83b4 b4bc 07d6 b2be c04b b13e b908 8fbe
00000120: b411 abbe d5f8 67be 8fa6 d5be 6a12 f9bd
00000130: 4b39 88be 0d9a 9fbe f5be 82be b600 de3c
00000140: 521a a4be b766 fbbd 4d38 fc3e 2c5d babe
00000150: 28b1 c6be 00c7 c1be 9c27 52be 3373 6abe
00000160: 16fc 97be dd05 363e f497 8cbd 9305 cabe
00000170: 8ffe fdbd 7408 85be 56f8 4dbe ac7a 08be
00000180: 4a2b 94be 739f 3f3e 8df1 38be 7107 b73e
00000190: e350 b9be b04f 91be 6ec6 6cbd 9348 b2be
000001a0: 6b87 cdbe 75aa 7abe 0a51 b2be 6992 5ebe
000001b0: 4afb abbe e7b1 c6be 5daf 99be f071 09bf
000001c0: c4c6 5fbe 5e02 87be 1f32 853e 9162 11bf
000001d0: c3d4 80be 340d 33bb 9471 09be 818e c1bd
000001e0: 4bd5 6ebe bffa 0fbf 4c5a a9be 081c 82bd
000001f0: d88f 87be 4973 9bbe 879a e4bd fe32 e0be
-0.21864372 -0.12882459 0.11208478 -0.050964754 -0.18775852 0.13984662 -0.26929012 -0.16586272
-0.18755789 -0.3537601 -0.17826226 -0.05354049 -0.25350916 0.21417086 -0.14121431 0.2913659
-0.42172673 0.20594968 -0.32781854 -0.023371276 -0.17438963 -0.6030131 -0.26944786 -0.41777784
-0.16816135 -0.3500045 -0.18745025 -0.11325982 -0.25595325 0.57896954 -0.28816485 -0.19181573
-0.27195978 -0.18300892 -0.3646618 -0.26528317 -0.1863295 0.39887962 -0.11329892 -0.39317307
-0.3829719 -0.24686512 -0.1345881 -0.21368954 -0.12289265 0.15043586 -0.30872133 -0.18844761
-0.32874563 0.19938669 -0.1991162 -0.30671063 0.20813091 -0.40787175 -0.385783 0.1281737
-0.22449668 -0.23993932 -0.21978328 -0.12934072 -0.16227378 -0.29666647 -0.20615205 -0.35500443
-0.082791224 -0.26060328 -0.1357446 -0.553843 -0.022058731 -0.34928915 0.34628105 -0.27936342
-0.33411944 -0.22653516 -0.41728637 -0.12161715 -0.2660621 -0.3117222 -0.25536314 0.027099948
-0.3205133 -0.12275451 0.49261704 -0.3639921 -0.38807034 -0.37847137 -0.20522922 -0.22895508
-0.29684514 0.17775674 -0.0686492 -0.39457378 -0.12402069 -0.25983012 -0.20114264 -0.13328046
-0.28939277 0.18713169 -0.18060894 0.35747865 -0.36194524 -0.2838111 -0.057806425 -0.34820995
-0.40142378 -0.24479087 -0.34827453 -0.21735539 -0.33590156 -0.38807604 -0.30016604 -0.5368948
-0.21853167 -0.26368994 0.26014802 -0.56791025 -0.25162324 -0.0027321102 -0.13422233 -0.094510086
-0.23323552 -0.56241983 -0.33076704 -0.06353003 -0.26476932 -0.30361393 -0.11162286 -0.43788904

weight f4 [64, 128]
00000000: 11e7 ebbd dff3 80bd ea1c b1bd 3a09 8ebd
00000010: 5a25 b3bd a58f 24bd 4ed6 d3bd 5ef1 ab3c
00000020: 2f24 963d 636b 0dbe 3e40 5bbe cdd5 8bbd
00000030: 2163 d8bd c24e a4bd 6b38 5abe cc87 cdbd
00000040: 1138 673d 6ae4 ccbc f769 11be 987d d23c
00000050: 12c8 c3ba 4350 f8bd d2c6 45be dad2 c8bb
00000060: 77e2 bfbd 2e6f 60b9 814b 57bd 8d1f 1f3d
00000070: c25c 17bd 976e a4bd 320c 21bd 6440 2ebe
00000080: 96b4 3a3d 55c3 44be 0c6e 33be 3535 823c
00000090: 7b98 d9bc d1a1 3fbe 7e3e dabd 3e9e 36be
000000a0: c6a4 a2bd 6212 cebd 74f9 e83c 1baf 68bd
000000b0: c661 1bbe 9e1f 42be f82a 07bd 0593 07be
000000c0: 2872 223c 08a0 203d 4979 f6bd 47ae 44bd
000000d0: 79ca 21be b133 04bd 8b94 313c aadf 28be
000000e0: fe33 06be c4ca 27bd ecc2 653d 8049 3cbc
000000f0: 3fc7 343d 4396 8f3c 516f 1cbe b10e 44bd
00000100: eed3 30be 3dd5 aabe 3405 8cbc b837 dbbc
00000110: ff4d 1dbe b254 3dbd 08c6 d6bd 9d99 c03d
00000120: cdfb 89bc 5528 e9bd cd88 39be d222 8ebd
00000130: 3090 cebd ce05 973c 851b 33bd b659 50bd
00000140: 65d8 5cbd 310b 68be 1653 4dbd 73b4 51bd
00000150: 10dd c73c 93b5 32bc cf5d 7dbd 6f62 a73d
00000160: 956f 0bbe 8c20 8e3c 24b3 8cbd d8c7 813d
00000170: b243 86ba 26b2 393d 155f 6fbd 7e50 a5bd
00000180: 8d13 80bd 1a07 32be f1e2 07be 0ab7 4fbd
00000190: 33f8 d63c 9006 bfbd 30ee 2e3c d356 8a3c
000001a0: 8b11 15be 4e86 2f3d 9eb6 7dbd b780 91bd
000001b0: 05a9 63bd 8fa2 afbd d460 9cbd f4d1 edbd
000001c0: ce6b 49be fd65 523d 86d3 76be aa92 f73d
000001d0: 92b0 0fbe 9568 d8bc 650e 6dbe 57e8 f8bd
000001e0: 30dd cabd 1f3f 093e d851 81bd 9d3c 773c
000001f0: 0bdb 993d 80ac 11be d90c bfbd 510d e7bd
00000200: cfba 61bc f818 b33d 3056 183b 26e9 9ebe
00000210: 80c3 9e3d 6409 253d 2aa8 0abd c7d3 f0bc
00000220: b117 84bd 0c2c af3c 01d9 44bb 7334 1ebe
00000230: 4b55 b7bd 3302 d23d f18e 5a3d ab35 b1bd
00000240: 6191 5abe 10a9 b83c a1e1 dd3b 50e5 18be
00000250: ae54 2abd d0ba 41bd df06 c73b 18dd b7bd
00000260: f4b3 28be a0a8 2a3d de66 34bc 4624 c93c
00000270: c2af 01be fe36 ce3b 4703 c53d bb8b 013e
00000280: 15c6 f9bd 0820 c73d 3f7f 3cbd da57 f23d
00000290: 0427 7ebe 6d85 5f3d 04e5 69bc 5e88 9d3c
000002a0: fd3c 9bbc eb2e 24be 0bff 19be 84dc 36bd
000002b0: 2cb1 20be 9db8 c73d fcdd d8bd 7314 9c3d
000002c0: e5e8 9cbc 770b 18be 33c1 173d 86b0 85bc
000002d0: a506 11be c8ea 78bd b3fb c6bd 544e 28be
000002e0: 11fc 033e 4509 e1bd b16f 26be dfb9 d1bd
000002f0: 86ac 0dbe 2a6d 45be bbf0 19bd a2c9 65bc
00000300: 483e 1a3d 279b 913d e552 76bd 66b9 af3b
00000310: 80a7 343d 1f2a 853d 7a67 ecbd d663 1d3e
00000320: 32fd e9bc 9a49 8f3d bc8c 44bd af06 8ebd
00000330: a3f8 11be 850f 92bd acf5 873d 7ac3 2abe
00000340: 4299 89bb f7bd 84bc ee36 4e3d 82b8 cfbd
00000350: 9bdd 333c 8ff7 d6bd 2a64 4d3c 3ae7 0cbd
00000360: 7d4f 57bd 256d 493d bc8c 00bd adab 9f3c
00000370: 5846 dd3c e429 4bbd 6d9e 83be b923 c2ba
00000380: cd80 a6bd f32f 0b3d f776 99bb 7be7 01be
00000390: 5bc0 07be 5415 3fbe b140 afbe 99bf c0bd
000003a0: b3b1 77bc 3a24 a0bd f4cd 47bd 5588 8f3d
000003b0: 646e d3bb 23a3 7c3d 9a87 06bd 0a33 f13c
000003c0: ce8d 86bd 4f1e c2bd 83b4 a73d 35c2 463e
000003d0: a6c9 c5bd 11fa 52be a5b5 11be dd1f 2dbe
000003e0: cd34 df3d 35b4 b8bd e9c4 21be 0aa3 ee3b
000003f0: ea38 4dbe 457c 15be 1d7a 25be ad5d 493c
-0.11518682 -0.06296515 -0.08648093 -0.069353536 -0.087473586 -0.040176053 -0.1034361 0.020989116
0.0733112 -0.13810496 -0.21411225 -0.06827889 -0.10565782 -0.08022834 -0.21310584 -0.10035667
0.056449953 -0.02501126 -0.14200579 0.025694653 -0.0014936945 -0.12124684 -0.19314125 -0.006128651
-0.093693666 -0.00021403722 -0.05256224 0.03884845 -0.036953695 -0.08028906 -0.03931827 -0.1701675
0.045582376 -0.19215138 -0.17522448 0.015894512 -0.026561966 -0.18714072 -0.10656451 -0.17833802
-0.07941584 -0.100621 0.028439261 -0.05680762 -0.15174016 -0.18957373 -0.032999963 -0.13239677
0.009914912 0.039215118 -0.12034852 -0.048017766 -0.15799893 -0.03227586 0.010838638 -0.16491571
-0.13105771 -0.040964857 0.056094095 -0.011492133 0.04413533 0.017527705 -0.15276839 -0.047865573
-0.17268345 -0.33365813 -0.017092325 -0.026759967 -0.15361784 -0.04622335 -0.1048699 0.094042994
-0.0168437 -0.11384646 -0.18118592 -0.06940235 -0.10086095 0.018435385 -0.043727417 -0.050866805
-0.053917307 -0.22660519 -0.050128065 -0.05119748 0.024397403 -0.0109075485 -0.06185704 0.081730716
-0.13616784 0.017349504 -0.06870106 0.06336945 -0.0010243563 0.04533591 -0.058440287 -0.08071993
-0.06253729 -0.17385522 -0.13270165 -0.05071167 0.026241397 -0.093274236 0.0106769055 0.016887104
-0.14557473 0.042852692 -0.061941735 -0.071046285 -0.05558111 -0.085759275 -0.07635656 -0.11612311
-0.1967003 0.051366795 -0.24104127 0.12088521 -0.140322 -0.026417056 -0.23150022 -0.1215369
-0.099054694 0.13402985 -0.063144386 0.015090135 0.07512482 -0.1422596 -0.09328622 -0.11281837
-0.013777449 0.08744997 0.002324473 -0.31037253 0.077521324 0.04029216 -0.03385178 -0.029397858
-0.06449831 0.021383308 -0.003003657 -0.15449695 -0.08951815 0.10254326 0.053358976 -0.086528145
-0.2134452 0.022541553 0.006771282 -0.14931226 -0.041584663 -0.0472973 0.006073817 -0.08977717
-0.16474897 0.04166472 -0.011010854 0.02455343 -0.12664703 0.0062931767 0.09619766 0.12650959
-0.12195984 0.09722906 -0.04601979 0.118331626 -0.24819571 0.054570604 -0.014275793 0.019230064
-0.01894998 -0.16033523 -0.15038697 -0.044643894 -0.15692586 0.09752009 -0.10589215 0.07621088
-0.019154022 -0.14848123 0.037049484 -0.016319524 -0.14162691 -0.06077078 -0.097159766 -0.1643613
0.12889124 -0.10988096 -0.16253544 -0.1024053 -0.13835344 -0.19279924 -0.037583094 -0.014025124
0.037657052 0.07109671 -0.060137648 0.0053626774 0.044105053 0.065021746 -0.11543174 0.15370116
-0.028563116 0.0699646 -0.047985777 -0.069348685 -0.14255004 -0.07131866 0.06638655 -0.16676131
-0.004199178 -0.016203864 0.050345354 -0.10142614 0.010978128 -0.10496437 0.012536088 -0.034400202
-0.05256604 0.049176354 -0.031384215 0.019491041 0.027011082 -0.049600497 -0.25706807 -0.0014811672
-0.081300355 0.033981275 -0.004683371 -0.12685959 -0.13256972 -0.1866048 -0.34229043 -0.09411544
-0.01511805 -0.0781941 -0.048780397 0.07008425 -0.0064523686 0.061679017 -0.032844163 0.029443283
-0.06570016 -0.09478437 0.08188727 0.19410022 -0.09657602 -0.20603205 -0.14229448 -0.16906686
0.10898743 -0.09018747 -0.15797772 0.0072826194 -0.20041242 -0.14598186 -0.16159864 0.0122904

bias f4 [64]
00000000: 7943 e23e 7908 bc3c 232e 58be f502 f7bc
00000010: 588f 0abe 4189 d5bd 906c e83e 2b7c 7cbe
00000020: b4ae 7dbe 9a81 aabe 11e6 813e d30a 4f3f
00000030: 76ff 4cbe ab01 c1be 8aac 6c3e 8785 a2bd
00000040: c72d de3e ecbc 0e3f 2ca1 d53e 0de5 8a3e
00000050: e790 463e 16a9 f83e 0884 d13e ff69 0ebe
00000060: dcc5 b73d f9b9 7cbe 6e02 fabd 57af 853e
00000070: 5a09 e5be 9bb0 59be 106e efbc e538 b1be
00000080: 04a6 ffbe e8f7 1d3f e72e 1ebd 34b3 95be
00000090: d283 b73d 6c44 e1bd 4f19 ccbe e86d 9abd
000000a0: 9bd6 1a3f b17c 78bd 0401 773e 1ee5 663c
000000b0: f42d 0b3e cab5 063e 8283 493e 474a b7be
000000c0: de27 79be 8cde 123e 24dd 0bbe 337b a13e
000000d0: 2ad1 46be 9f1a b83e 96e8 1fbd 0da9 6bbe
000000e0: d2d2 213f 3551 88be 1d39 a53e 0b43 a0be
000000f0: 88d9 803b 1ed4 923d 756e 21be 4adc f83e
0.44192103 0.022953259 -0.2111135 -0.030152777 -0.13531244 -0.1042657 0.45395327 -0.24656741
-0.24773675 -0.33302003 0.2537084 0.8087589 -0.20019326 -0.37696585 0.23112693 -0.079356246
0.433943 0.5575702 0.41724527 0.27127877 0.19391213 0.48566502 0.40921044 -0.13907622
0.089732856 -0.24680318 -0.12207495 0.26110336 -0.44733697 -0.21258776 -0.029227287 -0.3461372
-0.49931347 0.617064 -0.03861895 -0.29238284 0.089606896 -0.109993786 -0.3986306 -0.07540494
0.6048371 -0.06066579 0.24121481 0.014092712 0.13591748 0.13155285 0.19679072 -0.35798857
-0.24331614 0.14342707 -0.13658577 0.31539306 -0.19415727 0.3595781 -0.03904017 -0.23013707
0.6321231 -0.26624456 0.32270136 -0.3130115 0.0039321817 0.071693644 -0.15764792 0.48605567

weight f4 [10, 64]
00000000: 9821 9abc 59b2 eb3a ce12 9cbd 4330 d53d
00000010: fa74 063e 2135 853d 75f6 dcbd dd62 af3d
00000020: 4f62 ee3c 1568 803c c471 7ebd 760e 17b9
00000030: 0b85 9a3d 335c b0bd 5e60 32bc 57d5 5e3d
00000040: 0f54 03bd 3c38 383b 06bf f2bc 0907 0b3c
00000050: 8f8e 853d f172 3e3d 7441 65bc 98b4 28be
00000060: d251 bb3b 8df0 26bd 81b7 4dbe ec4d 3e3d
00000070: 8897 a33d 52ac aa3c 3647 c53c 36b3 b33d
00000080: 1157 623c b79f 28bd c856 f93d bf74 1d3d
00000090: 516a 99bd c3bc 823d f81e 013c 8478 b83c
000000a0: d389 d33c 27ef df3a 947c 62bd de5b 0b3d
000000b0: 722f 41bd 27cd 253d 0ce0 f2bc f874 08bb
000000c0: cac9 b4bc 226c cabc 372a 3c3d 31a6 693c
000000d0: 7b58 ccbc d962 32bd 95a3 303c e4d8 163d
000000e0: cd36 ecbc b9b2 bf3d 9446 a0bd 8b91 17bd
000000f0: 43e0 4e3d 3596 e4bc 0ff2 2bbc 8687 60bd
00000100: 6764 f13c bef9 02bc 9c94 ce3d e041 02bd
00000110: cdab 943d 3b0f 2dbd 5095 7fbd 2d18 583b
00000120: 5e1f b23b c051 0a3d 519e 6e3c 0752 543c
00000130: c4a7 703d f9e7 263e 24b7 dfbb c9d2 a13d
00000140: 1b78 1c3c 2900 803c d6d3 00ba b69a 853c
00000150: 6b32 043d 57ff 843d b2b3 863d 6bb7 d93c
00000160: 3591 c1bd caa5 4b3d 1d17 56bd a125 903d
00000170: 8eeb 033d d0e3 763c a9d3 223d 9f11 70bc
00000180: f5ca ec3c 0309 10bd a22a 8fbc f047 01bd
00000190: b149 1b3d 3fe6 ba3c 5b4c ec3b 515d cfbc
000001a0: 6c17 aa3b 5fb3 233d fe35 9fbc 7381 abbd
000001b0: 48c0 6c3d e473 763d 687c 3f3c cde0 be3d
000001c0: ad78 80bd 8c2b 163d 7e74 3e3d 30eb 943d
000001d0: 2cc9 893d 3684 703d 18f1 8c3d 1871 b6bd
000001e0: 5b7d 103d 56bd 453d 16be 973d 0ee8 adbb
000001f0: 8c97 823d f136 d83c c4b2 4b3d 88e6 373d
00000200: ab14 653d 65ca 4e3d 6de6 943b 1d32 203d
00000210: b5b3 b63d a06b 683b dcc6 2abd b77d 7d3d
00000220: 621c 833d ec2f e6bc a008 8abd 1859 07bd
00000230: 9292 4d3d 1d7d 433d 529c 833d 62a3 e33c
00000240: 550a a13c 88a5 d83a 126c 24bd 28f2 703d
00000250: 375a a5bc e9d9 e63c b248 9a3d 6e30 91bd
00000260: 9233 11bd a91c 69bd 96b7 de3b cec9 983d
00000270: 01ac 873d 6c86 2dbc ac48 e93c e92f 9a3c
00000280: d9ea 60bc 3f43 2f3c 7541 c03b 4d7c 54bd
00000290: ff08 953d e8eb db3c 1b3e 2f3c 29bf 103d
000002a0: 8654 edba 9bea 303d 9148 663d 325f 283d
000002b0: aadb 8bbd 5c31 eb3c 2d34 7c3d bd7e 853c
000002c0: 0f70 cd3c f953 9e3d b55a b03c d6cd 253d
000002d0: 1c31 ce3c 3feb 213d 7f40 b63d ca80 0ebd
000002e0: 6b50 a53c 0617 753d b450 bebc a290 d33d
000002f0: 234b 573d 0939 103b 0378 f33c 3528 f93c
00000300: e843 1d3d da43 023d 9ff9 f33c a85f 7e3d
00000310: e365 f83c f1aa f7bc 9c10 56bd 178d 703d
00000320: 5948 73bd f4e7 d1bc 7b1b 103d 0e20 853d
00000330: cf88 253d 35d8 eb3c 7cf6 3bbd b6f1 bb3c
00000340: bf46 a7bd 4702 cf3c 61ec fc3c bfce 813c
00000350: 49ec d13d 95ab 8d3c 6c93 c83d 0e24 82bd
00000360: 5e1e 52bc af90 22bd f179 be3c 9712 f23c
00000370: fa02 693d bf7c 843c 7268 1ebb e18e 83bc
00000380: a31f 293d d3a0 58bc 6994 9d3d e5a7 533d
00000390: 0843 a13d b1b6 8cbb 3006 ea3c a45a 103d
000003a0: 52b0 f13c d1a7 b63d 168c f53c 8ac0 0d3c
000003b0: abed 87bc 36ab 103d 2183 6b3d 2d1a 093c
000003c0: 6b37 86bd ef90 5f3d bbdb aebc d7ac 063e
000003d0: b4f7 e43c f5b1 a83d 43b6 983d 2836 37bd
000003e0: 5c92 c0b9 f769 06bd b5bf cebc dfb9 803c
000003f0: f08e 76bb eb3c 763d 0e88 1a3d 27e0 cd3c
-0.018814847 0.0017982229 -0.07620774 0.10409596 0.1313056 0.06504274 -0.107891954 0.085637785
0.029099612 0.01567463 -0.062120214 -0.0001440587 0.07544907 -0.086113356 -0.010887234 0.054402675
-0.032062586 0.002810969 -0.029632103 0.008485564 0.065213315 0.046496335 -0.013992656 -0.16475141
0.005716541 -0.04075675 -0.20089532 0.04646103 0.07987887 0.020834122 0.024081808 0.08774416
0.013814704 -0.04116794 0.12174755 0.038441416 -0.07490981 0.0638366 0.007880919 0.022518404
0.025822556 0.0017084823 -0.05529459 0.03402316 -0.047164388 0.04047885 -0.02964785 -0.0020821672
-0.022068877 -0.024709765 0.045938697 0.0142608145 -0.024944535 -0.0435513 0.0107811885 0.036827937
-0.028834725 0.093602605 -0.07825962 -0.037004035 0.05050684 -0.027903656 -0.010494723 -0.054816745
0.02946682 -0.0079941135 0.10086939 -0.031801105 0.07259331 -0.042250853 -0.062398255 0.0032973394
0.005435868 0.03376937 0.014564113 0.01295901 0.058753744 0.16299428 -0.006827252 0.07901532
0.00955012 0.015625076 -0.00049143785 0.016309123 0.032274645 0.06494015 0.06577243 0.026576718
-0.09451524 0.049718656 -0.052268136 0.07038427 0.032207064 0.015068963 0.039752636 -0.014652639
0.028905371 -0.035164844 -0.017476384 -0.031562746 0.037912074 0.022814868 0.0072112507 -0.025313051
0.0051907804 0.039965983 -0.019434925 -0.083743 0.05780056 0.060169116 0.011687376 0.09320221
-0.06273017 0.036662623 0.046497814 0.07271421 0.067278236 0.058719836 0.068819225 -0.0890829
0.0352758 0.048276268 0.07409303 -0.005307204 0.063765615 0.026393386 0.04973103 0.044897586
0.055927914 0.050485987 0.0045440705 0.03911029 0.08920995 0.003546454 -0.041693553 0.06188747
0.06401898 -0.028099023 -0.06739926 -0.03304395 0.05018861 0.04772674 0.064263 0.027787868
0.019658247 0.0016528824 -0.040142126 0.05882469 -0.02018462 0.02818008 0.07533397 -0.07089315
-0.035449572 -0.056912098 0.0067967875 0.07460366 0.06624604 -0.010591131 0.028477035 0.018821673
-0.013727867 0.010697185 0.005867178 -0.051876355 0.072771065 0.026845887 0.010695959 0.035338555
-0.0018106855 0.043192487 0.05622155 0.04110641 -0.06829007 0.02871006 0.061573196 0.016295785
0.025077848 0.0773086 0.021527627 0.040479504 0.025169902 0.03953099 0.088990204 -0.03479079
0.020179948 0.05983641 -0.023231842 0.10330321 0.05256189 0.0022006652 0.029720312 0.03041468
0.03839484 0.03180299 0.029782115 0.062102944 0.03032202 -0.030232878 -0.052261934 0.058728304
-0.059395168 -0.0256233 0.035182457 0.065002546 0.040413674 0.028789619 -0.045889363 0.022942405
-0.081677906 0.02526964 0.030874433 0.015845655 0.10250146 0.01729373 0.097937435 -0.06354533
-0.012824623 -0.039688762 0.023251506 0.02954988 0.056887604 0.016172765 -0.002417114 -0.01605934
0.041289937 -0.013221937 0.076943226 0.05167379 0.07874113 -0.0042942395 0.028567404 0.03524269
0.029503021 0.08918727 0.029974025 0.008651862 -0.016592821 0.03531953 0.0574981 0.008368057
-0.06553539 0.05458158 -0.02134501 0.1315187 0.027950145 0.082370676 0.07456639 -0.04472938
-0.0003673014 -0.0328159 -0.025237897 0.01571363 -0.0037621818 0.06011669 0.037727408 0.025131298

bias f4 [10]
00000000: eaea 3b3e 98e9 0abf 5ef6 0abe 5753 83be
00000010: 5f06 8fbd 1237 71be 0283 94bd f035 a5be
00000020: 6e84 523f 5b0c 5b3e
0.18351331 -0.54262686 -0.13570544 -0.2564952 -0.06983637 -0.23556164 -0.0725155 -0.32267714
0.8223332 0.21391432
